…
Architecture Search config:
	type: <class 'nas_manager.GradientArchSearchConfig'>
	arch_init_type: normal
	arch_init_ratio: 0.001
	opt_type: adam
	lr: 0.001
	opt_param: {'betas': (0, 0.999), 'eps': 1e-08}
	weight_decay: 0
	target_hardware: None
	ref_value: None
	update_arch_param_every: 5
	update_steps: 1
	binary_mode: full_v2
	data_batch: None
	reg_loss_type: mul#log
	reg_loss_params: {'alpha': 0.2, 'beta': 0.3}
/home/dnguye69/.torch/proxyless_nas/file.lzhu.me/projects/proxylessNAS/LatencyTools/mobile_trim.yaml
DataParallel(
  (module): SuperProxylessNASNets(
    (first_conv): ConvLayer(
      (conv): Conv2d(3, 32, kernel_size=(3, 3), stride=(2, 2), padding=(1, 1), bias=False)
      (bn): BatchNorm2d(32, eps=0.001, momentum=0.1, affine=True, track_running_stats=True)
      (act): ReLU6(inplace=True)
    )
    (blocks): ModuleList(
      (0): MobileInvertedResidualBlock(
        (mobile_inverted_conv): MBInvertedConvLayer(
          (depth_conv): Sequential(
            (conv): Conv2d(32, 32, kernel_size=(3, 3), stride=(1, 1), padding=(1, 1), groups=32, bias=False)
            (bn): BatchNorm2d(32, eps=0.001, momentum=0.1, affine=True, track_running_stats=True)
            (act): ReLU6(inplace=True)
          )
          (point_linear): Sequential(
            (conv): Conv2d(32, 16, kernel_size=(1, 1), stride=(1, 1), bias=False)
            (bn): BatchNorm2d(16, eps=0.001, momentum=0.1, affine=True, track_running_stats=True)
          )
        )
      )
      (1): MobileInvertedResidualBlock(
        (mobile_inverted_conv): MixedEdge(
          (candidate_ops): ModuleList(
            (0): MBInvertedConvLayer(
              (inverted_bottleneck): Sequential(
                (conv): Conv2d(16, 48, kernel_size=(1, 1), stride=(1, 1), bias=False)
                (bn): BatchNorm2d(48, eps=0.001, momentum=0.1, affine=True, track_running_stats=True)
                (act): ReLU6(inplace=True)
              )
              (depth_conv): Sequential(
                (conv): Conv2d(48, 48, kernel_size=(3, 3), stride=(2, 2), padding=(1, 1), groups=48, bias=False)
                (bn): BatchNorm2d(48, eps=0.001, momentum=0.1, affine=True, track_running_stats=True)
                (act): ReLU6(inplace=True)
              )
              (point_linear): Sequential(
                (conv): Conv2d(48, 24, kernel_size=(1, 1), stride=(1, 1), bias=False)
                (bn): BatchNorm2d(24, eps=0.001, momentum=0.1, affine=True, track_running_stats=True)
              )
            )
            (1): MBInvertedConvLayer(
              (inverted_bottleneck): Sequential(
                (conv): Conv2d(16, 96, kernel_size=(1, 1), stride=(1, 1), bias=False)
                (bn): BatchNorm2d(96, eps=0.001, momentum=0.1, affine=True, track_running_stats=True)
                (act): ReLU6(inplace=True)
              )
              (depth_conv): Sequential(
                (conv): Conv2d(96, 96, kernel_size=(3, 3), stride=(2, 2), padding=(1, 1), groups=96, bias=False)
                (bn): BatchNorm2d(96, eps=0.001, momentum=0.1, affine=True, track_running_stats=True)
                (act): ReLU6(inplace=True)
              )
              (point_linear): Sequential(
                (conv): Conv2d(96, 24, kernel_size=(1, 1), stride=(1, 1), bias=False)
                (bn): BatchNorm2d(24, eps=0.001, momentum=0.1, affine=True, track_running_stats=True)
              )
            )
            (2): MBInvertedConvLayer(
              (inverted_bottleneck): Sequential(
                (conv): Conv2d(16, 48, kernel_size=(1, 1), stride=(1, 1), bias=False)
                (bn): BatchNorm2d(48, eps=0.001, momentum=0.1, affine=True, track_running_stats=True)
                (act): ReLU6(inplace=True)
              )
              (depth_conv): Sequential(
                (conv): Conv2d(48, 48, kernel_size=(5, 5), stride=(2, 2), padding=(2, 2), groups=48, bias=False)
                (bn): BatchNorm2d(48, eps=0.001, momentum=0.1, affine=True, track_running_stats=True)
                (act): ReLU6(inplace=True)
              )
              (point_linear): Sequential(
                (conv): Conv2d(48, 24, kernel_size=(1, 1), stride=(1, 1), bias=False)
                (bn): BatchNorm2d(24, eps=0.001, momentum=0.1, affine=True, track_running_stats=True)
              )
            )
            (3): MBInvertedConvLayer(
              (inverted_bottleneck): Sequential(
                (conv): Conv2d(16, 96, kernel_size=(1, 1), stride=(1, 1), bias=False)
                (bn): BatchNorm2d(96, eps=0.001, momentum=0.1, affine=True, track_running_stats=True)
                (act): ReLU6(inplace=True)
              )
              (depth_conv): Sequential(
                (conv): Conv2d(96, 96, kernel_size=(5, 5), stride=(2, 2), padding=(2, 2), groups=96, bias=False)
                (bn): BatchNorm2d(96, eps=0.001, momentum=0.1, affine=True, track_running_stats=True)
                (act): ReLU6(inplace=True)
              )
              (point_linear): Sequential(
                (conv): Conv2d(96, 24, kernel_size=(1, 1), stride=(1, 1), bias=False)
                (bn): BatchNorm2d(24, eps=0.001, momentum=0.1, affine=True, track_running_stats=True)
              )
            )
            (4): MBInvertedConvLayer(
              (inverted_bottleneck): Sequential(
                (conv): Conv2d(16, 48, kernel_size=(1, 1), stride=(1, 1), bias=False)
                (bn): BatchNorm2d(48, eps=0.001, momentum=0.1, affine=True, track_running_stats=True)
                (act): ReLU6(inplace=True)
              )
              (depth_conv): Sequential(
                (conv): Conv2d(48, 48, kernel_size=(7, 7), stride=(2, 2), padding=(3, 3), groups=48, bias=False)
                (bn): BatchNorm2d(48, eps=0.001, momentum=0.1, affine=True, track_running_stats=True)
                (act): ReLU6(inplace=True)
              )
              (point_linear): Sequential(
                (conv): Conv2d(48, 24, kernel_size=(1, 1), stride=(1, 1), bias=False)
                (bn): BatchNorm2d(24, eps=0.001, momentum=0.1, affine=True, track_running_stats=True)
              )
            )
            (5): MBInvertedConvLayer(
              (inverted_bottleneck): Sequential(
                (conv): Conv2d(16, 96, kernel_size=(1, 1), stride=(1, 1), bias=False)
                (bn): BatchNorm2d(96, eps=0.001, momentum=0.1, affine=True, track_running_stats=True)
                (act): ReLU6(inplace=True)
              )
              (depth_conv): Sequential(
                (conv): Conv2d(96, 96, kernel_size=(7, 7), stride=(2, 2), padding=(3, 3), groups=96, bias=False)
                (bn): BatchNorm2d(96, eps=0.001, momentum=0.1, affine=True, track_running_stats=True)
                (act): ReLU6(inplace=True)
              )
              (point_linear): Sequential(
                (conv): Conv2d(96, 24, kernel_size=(1, 1), stride=(1, 1), bias=False)
                (bn): BatchNorm2d(24, eps=0.001, momentum=0.1, affine=True, track_running_stats=True)
              )
            )
          )
        )
      )
      (2): MobileInvertedResidualBlock(
        (mobile_inverted_conv): MixedEdge(
          (candidate_ops): ModuleList(
            (0): MBInvertedConvLayer(
              (inverted_bottleneck): Sequential(
                (conv): Conv2d(24, 72, kernel_size=(1, 1), stride=(1, 1), bias=False)
                (bn): BatchNorm2d(72, eps=0.001, momentum=0.1, affine=True, track_running_stats=True)
                (act): ReLU6(inplace=True)
              )
              (depth_conv): Sequential(
                (conv): Conv2d(72, 72, kernel_size=(3, 3), stride=(1, 1), padding=(1, 1), groups=72, bias=False)
                (bn): BatchNorm2d(72, eps=0.001, momentum=0.1, affine=True, track_running_stats=True)
                (act): ReLU6(inplace=True)
              )
              (point_linear): Sequential(
                (conv): Conv2d(72, 24, kernel_size=(1, 1), stride=(1, 1), bias=False)
                (bn): BatchNorm2d(24, eps=0.001, momentum=0.1, affine=True, track_running_stats=True)
              )
            )
            (1): MBInvertedConvLayer(
              (inverted_bottleneck): Sequential(
                (conv): Conv2d(24, 144, kernel_size=(1, 1), stride=(1, 1), bias=False)
                (bn): BatchNorm2d(144, eps=0.001, momentum=0.1, affine=True, track_running_stats=True)
                (act): ReLU6(inplace=True)
              )
              (depth_conv): Sequential(
                (conv): Conv2d(144, 144, kernel_size=(3, 3), stride=(1, 1), padding=(1, 1), groups=144, bias=False)
                (bn): BatchNorm2d(144, eps=0.001, momentum=0.1, affine=True, track_running_stats=True)
                (act): ReLU6(inplace=True)
              )
              (point_linear): Sequential(
                (conv): Conv2d(144, 24, kernel_size=(1, 1), stride=(1, 1), bias=False)
                (bn): BatchNorm2d(24, eps=0.001, momentum=0.1, affine=True, track_running_stats=True)
              )
            )
            (2): MBInvertedConvLayer(
              (inverted_bottleneck): Sequential(
                (conv): Conv2d(24, 72, kernel_size=(1, 1), stride=(1, 1), bias=False)
                (bn): BatchNorm2d(72, eps=0.001, momentum=0.1, affine=True, track_running_stats=True)
                (act): ReLU6(inplace=True)
              )
              (depth_conv): Sequential(
                (conv): Conv2d(72, 72, kernel_size=(5, 5), stride=(1, 1), padding=(2, 2), groups=72, bias=False)
                (bn): BatchNorm2d(72, eps=0.001, momentum=0.1, affine=True, track_running_stats=True)
                (act): ReLU6(inplace=True)
              )
              (point_linear): Sequential(
                (conv): Conv2d(72, 24, kernel_size=(1, 1), stride=(1, 1), bias=False)
                (bn): BatchNorm2d(24, eps=0.001, momentum=0.1, affine=True, track_running_stats=True)
              )
            )
            (3): MBInvertedConvLayer(
              (inverted_bottleneck): Sequential(
                (conv): Conv2d(24, 144, kernel_size=(1, 1), stride=(1, 1), bias=False)
                (bn): BatchNorm2d(144, eps=0.001, momentum=0.1, affine=True, track_running_stats=True)
                (act): ReLU6(inplace=True)
              )
              (depth_conv): Sequential(
                (conv): Conv2d(144, 144, kernel_size=(5, 5), stride=(1, 1), padding=(2, 2), groups=144, bias=False)
                (bn): BatchNorm2d(144, eps=0.001, momentum=0.1, affine=True, track_running_stats=True)
                (act): ReLU6(inplace=True)
              )
              (point_linear): Sequential(
                (conv): Conv2d(144, 24, kernel_size=(1, 1), stride=(1, 1), bias=False)
                (bn): BatchNorm2d(24, eps=0.001, momentum=0.1, affine=True, track_running_stats=True)
              )
            )
            (4): MBInvertedConvLayer(
              (inverted_bottleneck): Sequential(
                (conv): Conv2d(24, 72, kernel_size=(1, 1), stride=(1, 1), bias=False)
                (bn): BatchNorm2d(72, eps=0.001, momentum=0.1, affine=True, track_running_stats=True)
                (act): ReLU6(inplace=True)
              )
              (depth_conv): Sequential(
                (conv): Conv2d(72, 72, kernel_size=(7, 7), stride=(1, 1), padding=(3, 3), groups=72, bias=False)
                (bn): BatchNorm2d(72, eps=0.001, momentum=0.1, affine=True, track_running_stats=True)
                (act): ReLU6(inplace=True)
              )
              (point_linear): Sequential(
                (conv): Conv2d(72, 24, kernel_size=(1, 1), stride=(1, 1), bias=False)
                (bn): BatchNorm2d(24, eps=0.001, momentum=0.1, affine=True, track_running_stats=True)
              )
            )
            (5): MBInvertedConvLayer(
              (inverted_bottleneck): Sequential(
                (conv): Conv2d(24, 144, kernel_size=(1, 1), stride=(1, 1), bias=False)
                (bn): BatchNorm2d(144, eps=0.001, momentum=0.1, affine=True, track_running_stats=True)
                (act): ReLU6(inplace=True)
              )
              (depth_conv): Sequential(
                (conv): Conv2d(144, 144, kernel_size=(7, 7), stride=(1, 1), padding=(3, 3), groups=144, bias=False)
                (bn): BatchNorm2d(144, eps=0.001, momentum=0.1, affine=True, track_running_stats=True)
                (act): ReLU6(inplace=True)
              )
              (point_linear): Sequential(
                (conv): Conv2d(144, 24, kernel_size=(1, 1), stride=(1, 1), bias=False)
                (bn): BatchNorm2d(24, eps=0.001, momentum=0.1, affine=True, track_running_stats=True)
              )
            )
            (6): ZeroLayer()
          )
        )
        (shortcut): IdentityLayer()
      )
      (3): MobileInvertedResidualBlock(
        (mobile_inverted_conv): MixedEdge(
          (candidate_ops): ModuleList(
            (0): MBInvertedConvLayer(
              (inverted_bottleneck): Sequential(
                (conv): Conv2d(24, 72, kernel_size=(1, 1), stride=(1, 1), bias=False)
                (bn): BatchNorm2d(72, eps=0.001, momentum=0.1, affine=True, track_running_stats=True)
                (act): ReLU6(inplace=True)
              )
              (depth_conv): Sequential(
                (conv): Conv2d(72, 72, kernel_size=(3, 3), stride=(1, 1), padding=(1, 1), groups=72, bias=False)
                (bn): BatchNorm2d(72, eps=0.001, momentum=0.1, affine=True, track_running_stats=True)
                (act): ReLU6(inplace=True)
              )
              (point_linear): Sequential(
                (conv): Conv2d(72, 24, kernel_size=(1, 1), stride=(1, 1), bias=False)
                (bn): BatchNorm2d(24, eps=0.001, momentum=0.1, affine=True, track_running_stats=True)
              )
            )
            (1): MBInvertedConvLayer(
              (inverted_bottleneck): Sequential(
                (conv): Conv2d(24, 144, kernel_size=(1, 1), stride=(1, 1), bias=False)
                (bn): BatchNorm2d(144, eps=0.001, momentum=0.1, affine=True, track_running_stats=True)
                (act): ReLU6(inplace=True)
              )
              (depth_conv): Sequential(
                (conv): Conv2d(144, 144, kernel_size=(3, 3), stride=(1, 1), padding=(1, 1), groups=144, bias=False)
                (bn): BatchNorm2d(144, eps=0.001, momentum=0.1, affine=True, track_running_stats=True)
                (act): ReLU6(inplace=True)
              )
              (point_linear): Sequential(
                (conv): Conv2d(144, 24, kernel_size=(1, 1), stride=(1, 1), bias=False)
                (bn): BatchNorm2d(24, eps=0.001, momentum=0.1, affine=True, track_running_stats=True)
              )
            )
            (2): MBInvertedConvLayer(
              (inverted_bottleneck): Sequential(
                (conv): Conv2d(24, 72, kernel_size=(1, 1), stride=(1, 1), bias=False)
                (bn): BatchNorm2d(72, eps=0.001, momentum=0.1, affine=True, track_running_stats=True)
                (act): ReLU6(inplace=True)
              )
              (depth_conv): Sequential(
                (conv): Conv2d(72, 72, kernel_size=(5, 5), stride=(1, 1), padding=(2, 2), groups=72, bias=False)
                (bn): BatchNorm2d(72, eps=0.001, momentum=0.1, affine=True, track_running_stats=True)
                (act): ReLU6(inplace=True)
              )
              (point_linear): Sequential(
                (conv): Conv2d(72, 24, kernel_size=(1, 1), stride=(1, 1), bias=False)
                (bn): BatchNorm2d(24, eps=0.001, momentum=0.1, affine=True, track_running_stats=True)
              )
            )
            (3): MBInvertedConvLayer(
              (inverted_bottleneck): Sequential(
                (conv): Conv2d(24, 144, kernel_size=(1, 1), stride=(1, 1), bias=False)
                (bn): BatchNorm2d(144, eps=0.001, momentum=0.1, affine=True, track_running_stats=True)
                (act): ReLU6(inplace=True)
              )
              (depth_conv): Sequential(
                (conv): Conv2d(144, 144, kernel_size=(5, 5), stride=(1, 1), padding=(2, 2), groups=144, bias=False)
                (bn): BatchNorm2d(144, eps=0.001, momentum=0.1, affine=True, track_running_stats=True)
                (act): ReLU6(inplace=True)
              )
              (point_linear): Sequential(
                (conv): Conv2d(144, 24, kernel_size=(1, 1), stride=(1, 1), bias=False)
                (bn): BatchNorm2d(24, eps=0.001, momentum=0.1, affine=True, track_running_stats=True)
              )
            )
            (4): MBInvertedConvLayer(
              (inverted_bottleneck): Sequential(
                (conv): Conv2d(24, 72, kernel_size=(1, 1), stride=(1, 1), bias=False)
                (bn): BatchNorm2d(72, eps=0.001, momentum=0.1, affine=True, track_running_stats=True)
                (act): ReLU6(inplace=True)
              )
              (depth_conv): Sequential(
                (conv): Conv2d(72, 72, kernel_size=(7, 7), stride=(1, 1), padding=(3, 3), groups=72, bias=False)
                (bn): BatchNorm2d(72, eps=0.001, momentum=0.1, affine=True, track_running_stats=True)
                (act): ReLU6(inplace=True)
              )
              (point_linear): Sequential(
                (conv): Conv2d(72, 24, kernel_size=(1, 1), stride=(1, 1), bias=False)
                (bn): BatchNorm2d(24, eps=0.001, momentum=0.1, affine=True, track_running_stats=True)
              )
            )
            (5): MBInvertedConvLayer(
              (inverted_bottleneck): Sequential(
                (conv): Conv2d(24, 144, kernel_size=(1, 1), stride=(1, 1), bias=False)
                (bn): BatchNorm2d(144, eps=0.001, momentum=0.1, affine=True, track_running_stats=True)
                (act): ReLU6(inplace=True)
              )
              (depth_conv): Sequential(
                (conv): Conv2d(144, 144, kernel_size=(7, 7), stride=(1, 1), padding=(3, 3), groups=144, bias=False)
                (bn): BatchNorm2d(144, eps=0.001, momentum=0.1, affine=True, track_running_stats=True)
                (act): ReLU6(inplace=True)
              )
              (point_linear): Sequential(
                (conv): Conv2d(144, 24, kernel_size=(1, 1), stride=(1, 1), bias=False)
                (bn): BatchNorm2d(24, eps=0.001, momentum=0.1, affine=True, track_running_stats=True)
              )
            )
            (6): ZeroLayer()
          )
        )
        (shortcut): IdentityLayer()
      )
      (4): MobileInvertedResidualBlock(
        (mobile_inverted_conv): MixedEdge(
          (candidate_ops): ModuleList(
            (0): MBInvertedConvLayer(
              (inverted_bottleneck): Sequential(
                (conv): Conv2d(24, 72, kernel_size=(1, 1), stride=(1, 1), bias=False)
                (bn): BatchNorm2d(72, eps=0.001, momentum=0.1, affine=True, track_running_stats=True)
                (act): ReLU6(inplace=True)
              )
              (depth_conv): Sequential(
                (conv): Conv2d(72, 72, kernel_size=(3, 3), stride=(1, 1), padding=(1, 1), groups=72, bias=False)
                (bn): BatchNorm2d(72, eps=0.001, momentum=0.1, affine=True, track_running_stats=True)
                (act): ReLU6(inplace=True)
              )
              (point_linear): Sequential(
                (conv): Conv2d(72, 24, kernel_size=(1, 1), stride=(1, 1), bias=False)
                (bn): BatchNorm2d(24, eps=0.001, momentum=0.1, affine=True, track_running_stats=True)
              )
            )
            (1): MBInvertedConvLayer(
              (inverted_bottleneck): Sequential(
                (conv): Conv2d(24, 144, kernel_size=(1, 1), stride=(1, 1), bias=False)
                (bn): BatchNorm2d(144, eps=0.001, momentum=0.1, affine=True, track_running_stats=True)
                (act): ReLU6(inplace=True)
              )
              (depth_conv): Sequential(
                (conv): Conv2d(144, 144, kernel_size=(3, 3), stride=(1, 1), padding=(1, 1), groups=144, bias=False)
                (bn): BatchNorm2d(144, eps=0.001, momentum=0.1, affine=True, track_running_stats=True)
                (act): ReLU6(inplace=True)
              )
              (point_linear): Sequential(
                (conv): Conv2d(144, 24, kernel_size=(1, 1), stride=(1, 1), bias=False)
                (bn): BatchNorm2d(24, eps=0.001, momentum=0.1, affine=True, track_running_stats=True)
              )
            )
            (2): MBInvertedConvLayer(
              (inverted_bottleneck): Sequential(
                (conv): Conv2d(24, 72, kernel_size=(1, 1), stride=(1, 1), bias=False)
                (bn): BatchNorm2d(72, eps=0.001, momentum=0.1, affine=True, track_running_stats=True)
                (act): ReLU6(inplace=True)
              )
              (depth_conv): Sequential(
                (conv): Conv2d(72, 72, kernel_size=(5, 5), stride=(1, 1), padding=(2, 2), groups=72, bias=False)
                (bn): BatchNorm2d(72, eps=0.001, momentum=0.1, affine=True, track_running_stats=True)
                (act): ReLU6(inplace=True)
              )
              (point_linear): Sequential(
                (conv): Conv2d(72, 24, kernel_size=(1, 1), stride=(1, 1), bias=False)
                (bn): BatchNorm2d(24, eps=0.001, momentum=0.1, affine=True, track_running_stats=True)
              )
            )
            (3): MBInvertedConvLayer(
              (inverted_bottleneck): Sequential(
                (conv): Conv2d(24, 144, kernel_size=(1, 1), stride=(1, 1), bias=False)
                (bn): BatchNorm2d(144, eps=0.001, momentum=0.1, affine=True, track_running_stats=True)
                (act): ReLU6(inplace=True)
              )
              (depth_conv): Sequential(
                (conv): Conv2d(144, 144, kernel_size=(5, 5), stride=(1, 1), padding=(2, 2), groups=144, bias=False)
                (bn): BatchNorm2d(144, eps=0.001, momentum=0.1, affine=True, track_running_stats=True)
                (act): ReLU6(inplace=True)
              )
              (point_linear): Sequential(
                (conv): Conv2d(144, 24, kernel_size=(1, 1), stride=(1, 1), bias=False)
                (bn): BatchNorm2d(24, eps=0.001, momentum=0.1, affine=True, track_running_stats=True)
              )
            )
            (4): MBInvertedConvLayer(
              (inverted_bottleneck): Sequential(
                (conv): Conv2d(24, 72, kernel_size=(1, 1), stride=(1, 1), bias=False)
                (bn): BatchNorm2d(72, eps=0.001, momentum=0.1, affine=True, track_running_stats=True)
                (act): ReLU6(inplace=True)
              )
              (depth_conv): Sequential(
                (conv): Conv2d(72, 72, kernel_size=(7, 7), stride=(1, 1), padding=(3, 3), groups=72, bias=False)
                (bn): BatchNorm2d(72, eps=0.001, momentum=0.1, affine=True, track_running_stats=True)
                (act): ReLU6(inplace=True)
              )
              (point_linear): Sequential(
                (conv): Conv2d(72, 24, kernel_size=(1, 1), stride=(1, 1), bias=False)
                (bn): BatchNorm2d(24, eps=0.001, momentum=0.1, affine=True, track_running_stats=True)
              )
            )
            (5): MBInvertedConvLayer(
              (inverted_bottleneck): Sequential(
                (conv): Conv2d(24, 144, kernel_size=(1, 1), stride=(1, 1), bias=False)
                (bn): BatchNorm2d(144, eps=0.001, momentum=0.1, affine=True, track_running_stats=True)
                (act): ReLU6(inplace=True)
              )
              (depth_conv): Sequential(
                (conv): Conv2d(144, 144, kernel_size=(7, 7), stride=(1, 1), padding=(3, 3), groups=144, bias=False)
                (bn): BatchNorm2d(144, eps=0.001, momentum=0.1, affine=True, track_running_stats=True)
                (act): ReLU6(inplace=True)
              )
              (point_linear): Sequential(
                (conv): Conv2d(144, 24, kernel_size=(1, 1), stride=(1, 1), bias=False)
                (bn): BatchNorm2d(24, eps=0.001, momentum=0.1, affine=True, track_running_stats=True)
              )
            )
            (6): ZeroLayer()
          )
        )
        (shortcut): IdentityLayer()
      )
      (5): MobileInvertedResidualBlock(
        (mobile_inverted_conv): MixedEdge(
          (candidate_ops): ModuleList(
            (0): MBInvertedConvLayer(
              (inverted_bottleneck): Sequential(
                (conv): Conv2d(24, 72, kernel_size=(1, 1), stride=(1, 1), bias=False)
                (bn): BatchNorm2d(72, eps=0.001, momentum=0.1, affine=True, track_running_stats=True)
                (act): ReLU6(inplace=True)
              )
              (depth_conv): Sequential(
                (conv): Conv2d(72, 72, kernel_size=(3, 3), stride=(2, 2), padding=(1, 1), groups=72, bias=False)
                (bn): BatchNorm2d(72, eps=0.001, momentum=0.1, affine=True, track_running_stats=True)
                (act): ReLU6(inplace=True)
              )
              (point_linear): Sequential(
                (conv): Conv2d(72, 40, kernel_size=(1, 1), stride=(1, 1), bias=False)
                (bn): BatchNorm2d(40, eps=0.001, momentum=0.1, affine=True, track_running_stats=True)
              )
            )
            (1): MBInvertedConvLayer(
              (inverted_bottleneck): Sequential(
                (conv): Conv2d(24, 144, kernel_size=(1, 1), stride=(1, 1), bias=False)
                (bn): BatchNorm2d(144, eps=0.001, momentum=0.1, affine=True, track_running_stats=True)
                (act): ReLU6(inplace=True)
              )
              (depth_conv): Sequential(
                (conv): Conv2d(144, 144, kernel_size=(3, 3), stride=(2, 2), padding=(1, 1), groups=144, bias=False)
                (bn): BatchNorm2d(144, eps=0.001, momentum=0.1, affine=True, track_running_stats=True)
                (act): ReLU6(inplace=True)
              )
              (point_linear): Sequential(
                (conv): Conv2d(144, 40, kernel_size=(1, 1), stride=(1, 1), bias=False)
                (bn): BatchNorm2d(40, eps=0.001, momentum=0.1, affine=True, track_running_stats=True)
              )
            )
            (2): MBInvertedConvLayer(
              (inverted_bottleneck): Sequential(
                (conv): Conv2d(24, 72, kernel_size=(1, 1), stride=(1, 1), bias=False)
                (bn): BatchNorm2d(72, eps=0.001, momentum=0.1, affine=True, track_running_stats=True)
                (act): ReLU6(inplace=True)
              )
              (depth_conv): Sequential(
                (conv): Conv2d(72, 72, kernel_size=(5, 5), stride=(2, 2), padding=(2, 2), groups=72, bias=False)
                (bn): BatchNorm2d(72, eps=0.001, momentum=0.1, affine=True, track_running_stats=True)
                (act): ReLU6(inplace=True)
              )
              (point_linear): Sequential(
                (conv): Conv2d(72, 40, kernel_size=(1, 1), stride=(1, 1), bias=False)
                (bn): BatchNorm2d(40, eps=0.001, momentum=0.1, affine=True, track_running_stats=True)
              )
            )
            (3): MBInvertedConvLayer(
              (inverted_bottleneck): Sequential(
                (conv): Conv2d(24, 144, kernel_size=(1, 1), stride=(1, 1), bias=False)
                (bn): BatchNorm2d(144, eps=0.001, momentum=0.1, affine=True, track_running_stats=True)
                (act): ReLU6(inplace=True)
              )
              (depth_conv): Sequential(
                (conv): Conv2d(144, 144, kernel_size=(5, 5), stride=(2, 2), padding=(2, 2), groups=144, bias=False)
                (bn): BatchNorm2d(144, eps=0.001, momentum=0.1, affine=True, track_running_stats=True)
                (act): ReLU6(inplace=True)
              )
              (point_linear): Sequential(
                (conv): Conv2d(144, 40, kernel_size=(1, 1), stride=(1, 1), bias=False)
                (bn): BatchNorm2d(40, eps=0.001, momentum=0.1, affine=True, track_running_stats=True)
              )
            )
            (4): MBInvertedConvLayer(
              (inverted_bottleneck): Sequential(
                (conv): Conv2d(24, 72, kernel_size=(1, 1), stride=(1, 1), bias=False)
                (bn): BatchNorm2d(72, eps=0.001, momentum=0.1, affine=True, track_running_stats=True)
                (act): ReLU6(inplace=True)
              )
              (depth_conv): Sequential(
                (conv): Conv2d(72, 72, kernel_size=(7, 7), stride=(2, 2), padding=(3, 3), groups=72, bias=False)
                (bn): BatchNorm2d(72, eps=0.001, momentum=0.1, affine=True, track_running_stats=True)
                (act): ReLU6(inplace=True)
              )
              (point_linear): Sequential(
                (conv): Conv2d(72, 40, kernel_size=(1, 1), stride=(1, 1), bias=False)
                (bn): BatchNorm2d(40, eps=0.001, momentum=0.1, affine=True, track_running_stats=True)
              )
            )
            (5): MBInvertedConvLayer(
              (inverted_bottleneck): Sequential(
                (conv): Conv2d(24, 144, kernel_size=(1, 1), stride=(1, 1), bias=False)
                (bn): BatchNorm2d(144, eps=0.001, momentum=0.1, affine=True, track_running_stats=True)
                (act): ReLU6(inplace=True)
              )
              (depth_conv): Sequential(
                (conv): Conv2d(144, 144, kernel_size=(7, 7), stride=(2, 2), padding=(3, 3), groups=144, bias=False)
                (bn): BatchNorm2d(144, eps=0.001, momentum=0.1, affine=True, track_running_stats=True)
                (act): ReLU6(inplace=True)
              )
              (point_linear): Sequential(
                (conv): Conv2d(144, 40, kernel_size=(1, 1), stride=(1, 1), bias=False)
                (bn): BatchNorm2d(40, eps=0.001, momentum=0.1, affine=True, track_running_stats=True)
              )
            )
          )
        )
      )
      (6): MobileInvertedResidualBlock(
        (mobile_inverted_conv): MixedEdge(
          (candidate_ops): ModuleList(
            (0): MBInvertedConvLayer(
              (inverted_bottleneck): Sequential(
                (conv): Conv2d(40, 120, kernel_size=(1, 1), stride=(1, 1), bias=False)
                (bn): BatchNorm2d(120, eps=0.001, momentum=0.1, affine=True, track_running_stats=True)
                (act): ReLU6(inplace=True)
              )
              (depth_conv): Sequential(
                (conv): Conv2d(120, 120, kernel_size=(3, 3), stride=(1, 1), padding=(1, 1), groups=120, bias=False)
                (bn): BatchNorm2d(120, eps=0.001, momentum=0.1, affine=True, track_running_stats=True)
                (act): ReLU6(inplace=True)
              )
              (point_linear): Sequential(
                (conv): Conv2d(120, 40, kernel_size=(1, 1), stride=(1, 1), bias=False)
                (bn): BatchNorm2d(40, eps=0.001, momentum=0.1, affine=True, track_running_stats=True)
              )
            )
            (1): MBInvertedConvLayer(
              (inverted_bottleneck): Sequential(
                (conv): Conv2d(40, 240, kernel_size=(1, 1), stride=(1, 1), bias=False)
                (bn): BatchNorm2d(240, eps=0.001, momentum=0.1, affine=True, track_running_stats=True)
                (act): ReLU6(inplace=True)
              )
              (depth_conv): Sequential(
                (conv): Conv2d(240, 240, kernel_size=(3, 3), stride=(1, 1), padding=(1, 1), groups=240, bias=False)
                (bn): BatchNorm2d(240, eps=0.001, momentum=0.1, affine=True, track_running_stats=True)
                (act): ReLU6(inplace=True)
              )
              (point_linear): Sequential(
                (conv): Conv2d(240, 40, kernel_size=(1, 1), stride=(1, 1), bias=False)
                (bn): BatchNorm2d(40, eps=0.001, momentum=0.1, affine=True, track_running_stats=True)
              )
            )
            (2): MBInvertedConvLayer(
              (inverted_bottleneck): Sequential(
                (conv): Conv2d(40, 120, kernel_size=(1, 1), stride=(1, 1), bias=False)
                (bn): BatchNorm2d(120, eps=0.001, momentum=0.1, affine=True, track_running_stats=True)
                (act): ReLU6(inplace=True)
              )
              (depth_conv): Sequential(
                (conv): Conv2d(120, 120, kernel_size=(5, 5), stride=(1, 1), padding=(2, 2), groups=120, bias=False)
                (bn): BatchNorm2d(120, eps=0.001, momentum=0.1, affine=True, track_running_stats=True)
                (act): ReLU6(inplace=True)
              )
              (point_linear): Sequential(
                (conv): Conv2d(120, 40, kernel_size=(1, 1), stride=(1, 1), bias=False)
                (bn): BatchNorm2d(40, eps=0.001, momentum=0.1, affine=True, track_running_stats=True)
              )
            )
            (3): MBInvertedConvLayer(
              (inverted_bottleneck): Sequential(
                (conv): Conv2d(40, 240, kernel_size=(1, 1), stride=(1, 1), bias=False)
                (bn): BatchNorm2d(240, eps=0.001, momentum=0.1, affine=True, track_running_stats=True)
                (act): ReLU6(inplace=True)
              )
              (depth_conv): Sequential(
                (conv): Conv2d(240, 240, kernel_size=(5, 5), stride=(1, 1), padding=(2, 2), groups=240, bias=False)
                (bn): BatchNorm2d(240, eps=0.001, momentum=0.1, affine=True, track_running_stats=True)
                (act): ReLU6(inplace=True)
              )
              (point_linear): Sequential(
                (conv): Conv2d(240, 40, kernel_size=(1, 1), stride=(1, 1), bias=False)
                (bn): BatchNorm2d(40, eps=0.001, momentum=0.1, affine=True, track_running_stats=True)
              )
            )
            (4): MBInvertedConvLayer(
              (inverted_bottleneck): Sequential(
                (conv): Conv2d(40, 120, kernel_size=(1, 1), stride=(1, 1), bias=False)
                (bn): BatchNorm2d(120, eps=0.001, momentum=0.1, affine=True, track_running_stats=True)
                (act): ReLU6(inplace=True)
              )
              (depth_conv): Sequential(
                (conv): Conv2d(120, 120, kernel_size=(7, 7), stride=(1, 1), padding=(3, 3), groups=120, bias=False)
                (bn): BatchNorm2d(120, eps=0.001, momentum=0.1, affine=True, track_running_stats=True)
                (act): ReLU6(inplace=True)
              )
              (point_linear): Sequential(
                (conv): Conv2d(120, 40, kernel_size=(1, 1), stride=(1, 1), bias=False)
                (bn): BatchNorm2d(40, eps=0.001, momentum=0.1, affine=True, track_running_stats=True)
              )
            )
            (5): MBInvertedConvLayer(
              (inverted_bottleneck): Sequential(
                (conv): Conv2d(40, 240, kernel_size=(1, 1), stride=(1, 1), bias=False)
                (bn): BatchNorm2d(240, eps=0.001, momentum=0.1, affine=True, track_running_stats=True)
                (act): ReLU6(inplace=True)
              )
              (depth_conv): Sequential(
                (conv): Conv2d(240, 240, kernel_size=(7, 7), stride=(1, 1), padding=(3, 3), groups=240, bias=False)
                (bn): BatchNorm2d(240, eps=0.001, momentum=0.1, affine=True, track_running_stats=True)
                (act): ReLU6(inplace=True)
              )
              (point_linear): Sequential(
                (conv): Conv2d(240, 40, kernel_size=(1, 1), stride=(1, 1), bias=False)
                (bn): BatchNorm2d(40, eps=0.001, momentum=0.1, affine=True, track_running_stats=True)
              )
            )
            (6): ZeroLayer()
          )
        )
        (shortcut): IdentityLayer()
      )
      (7): MobileInvertedResidualBlock(
        (mobile_inverted_conv): MixedEdge(
          (candidate_ops): ModuleList(
            (0): MBInvertedConvLayer(
              (inverted_bottleneck): Sequential(
                (conv): Conv2d(40, 120, kernel_size=(1, 1), stride=(1, 1), bias=False)
                (bn): BatchNorm2d(120, eps=0.001, momentum=0.1, affine=True, track_running_stats=True)
                (act): ReLU6(inplace=True)
              )
              (depth_conv): Sequential(
                (conv): Conv2d(120, 120, kernel_size=(3, 3), stride=(1, 1), padding=(1, 1), groups=120, bias=False)
                (bn): BatchNorm2d(120, eps=0.001, momentum=0.1, affine=True, track_running_stats=True)
                (act): ReLU6(inplace=True)
              )
              (point_linear): Sequential(
                (conv): Conv2d(120, 40, kernel_size=(1, 1), stride=(1, 1), bias=False)
                (bn): BatchNorm2d(40, eps=0.001, momentum=0.1, affine=True, track_running_stats=True)
              )
            )
            (1): MBInvertedConvLayer(
              (inverted_bottleneck): Sequential(
                (conv): Conv2d(40, 240, kernel_size=(1, 1), stride=(1, 1), bias=False)
                (bn): BatchNorm2d(240, eps=0.001, momentum=0.1, affine=True, track_running_stats=True)
                (act): ReLU6(inplace=True)
              )
              (depth_conv): Sequential(
                (conv): Conv2d(240, 240, kernel_size=(3, 3), stride=(1, 1), padding=(1, 1), groups=240, bias=False)
                (bn): BatchNorm2d(240, eps=0.001, momentum=0.1, affine=True, track_running_stats=True)
                (act): ReLU6(inplace=True)
              )
              (point_linear): Sequential(
                (conv): Conv2d(240, 40, kernel_size=(1, 1), stride=(1, 1), bias=False)
                (bn): BatchNorm2d(40, eps=0.001, momentum=0.1, affine=True, track_running_stats=True)
              )
            )
            (2): MBInvertedConvLayer(
              (inverted_bottleneck): Sequential(
                (conv): Conv2d(40, 120, kernel_size=(1, 1), stride=(1, 1), bias=False)
                (bn): BatchNorm2d(120, eps=0.001, momentum=0.1, affine=True, track_running_stats=True)
                (act): ReLU6(inplace=True)
              )
              (depth_conv): Sequential(
                (conv): Conv2d(120, 120, kernel_size=(5, 5), stride=(1, 1), padding=(2, 2), groups=120, bias=False)
                (bn): BatchNorm2d(120, eps=0.001, momentum=0.1, affine=True, track_running_stats=True)
                (act): ReLU6(inplace=True)
              )
              (point_linear): Sequential(
                (conv): Conv2d(120, 40, kernel_size=(1, 1), stride=(1, 1), bias=False)
                (bn): BatchNorm2d(40, eps=0.001, momentum=0.1, affine=True, track_running_stats=True)
              )
            )
            (3): MBInvertedConvLayer(
              (inverted_bottleneck): Sequential(
                (conv): Conv2d(40, 240, kernel_size=(1, 1), stride=(1, 1), bias=False)
                (bn): BatchNorm2d(240, eps=0.001, momentum=0.1, affine=True, track_running_stats=True)
                (act): ReLU6(inplace=True)
              )
              (depth_conv): Sequential(
                (conv): Conv2d(240, 240, kernel_size=(5, 5), stride=(1, 1), padding=(2, 2), groups=240, bias=False)
                (bn): BatchNorm2d(240, eps=0.001, momentum=0.1, affine=True, track_running_stats=True)
                (act): ReLU6(inplace=True)
              )
              (point_linear): Sequential(
                (conv): Conv2d(240, 40, kernel_size=(1, 1), stride=(1, 1), bias=False)
                (bn): BatchNorm2d(40, eps=0.001, momentum=0.1, affine=True, track_running_stats=True)
              )
            )
            (4): MBInvertedConvLayer(
              (inverted_bottleneck): Sequential(
                (conv): Conv2d(40, 120, kernel_size=(1, 1), stride=(1, 1), bias=False)
                (bn): BatchNorm2d(120, eps=0.001, momentum=0.1, affine=True, track_running_stats=True)
                (act): ReLU6(inplace=True)
              )
              (depth_conv): Sequential(
                (conv): Conv2d(120, 120, kernel_size=(7, 7), stride=(1, 1), padding=(3, 3), groups=120, bias=False)
                (bn): BatchNorm2d(120, eps=0.001, momentum=0.1, affine=True, track_running_stats=True)
                (act): ReLU6(inplace=True)
              )
              (point_linear): Sequential(
                (conv): Conv2d(120, 40, kernel_size=(1, 1), stride=(1, 1), bias=False)
                (bn): BatchNorm2d(40, eps=0.001, momentum=0.1, affine=True, track_running_stats=True)
              )
            )
            (5): MBInvertedConvLayer(
              (inverted_bottleneck): Sequential(
                (conv): Conv2d(40, 240, kernel_size=(1, 1), stride=(1, 1), bias=False)
                (bn): BatchNorm2d(240, eps=0.001, momentum=0.1, affine=True, track_running_stats=True)
                (act): ReLU6(inplace=True)
              )
              (depth_conv): Sequential(
                (conv): Conv2d(240, 240, kernel_size=(7, 7), stride=(1, 1), padding=(3, 3), groups=240, bias=False)
                (bn): BatchNorm2d(240, eps=0.001, momentum=0.1, affine=True, track_running_stats=True)
                (act): ReLU6(inplace=True)
              )
              (point_linear): Sequential(
                (conv): Conv2d(240, 40, kernel_size=(1, 1), stride=(1, 1), bias=False)
                (bn): BatchNorm2d(40, eps=0.001, momentum=0.1, affine=True, track_running_stats=True)
              )
            )
            (6): ZeroLayer()
          )
        )
        (shortcut): IdentityLayer()
      )
      (8): MobileInvertedResidualBlock(
        (mobile_inverted_conv): MixedEdge(
          (candidate_ops): ModuleList(
            (0): MBInvertedConvLayer(
              (inverted_bottleneck): Sequential(
                (conv): Conv2d(40, 120, kernel_size=(1, 1), stride=(1, 1), bias=False)
                (bn): BatchNorm2d(120, eps=0.001, momentum=0.1, affine=True, track_running_stats=True)
                (act): ReLU6(inplace=True)
              )
              (depth_conv): Sequential(
                (conv): Conv2d(120, 120, kernel_size=(3, 3), stride=(1, 1), padding=(1, 1), groups=120, bias=False)
                (bn): BatchNorm2d(120, eps=0.001, momentum=0.1, affine=True, track_running_stats=True)
                (act): ReLU6(inplace=True)
              )
              (point_linear): Sequential(
                (conv): Conv2d(120, 40, kernel_size=(1, 1), stride=(1, 1), bias=False)
                (bn): BatchNorm2d(40, eps=0.001, momentum=0.1, affine=True, track_running_stats=True)
              )
            )
            (1): MBInvertedConvLayer(
              (inverted_bottleneck): Sequential(
                (conv): Conv2d(40, 240, kernel_size=(1, 1), stride=(1, 1), bias=False)
                (bn): BatchNorm2d(240, eps=0.001, momentum=0.1, affine=True, track_running_stats=True)
                (act): ReLU6(inplace=True)
              )
              (depth_conv): Sequential(
                (conv): Conv2d(240, 240, kernel_size=(3, 3), stride=(1, 1), padding=(1, 1), groups=240, bias=False)
                (bn): BatchNorm2d(240, eps=0.001, momentum=0.1, affine=True, track_running_stats=True)
                (act): ReLU6(inplace=True)
              )
              (point_linear): Sequential(
                (conv): Conv2d(240, 40, kernel_size=(1, 1), stride=(1, 1), bias=False)
                (bn): BatchNorm2d(40, eps=0.001, momentum=0.1, affine=True, track_running_stats=True)
              )
            )
            (2): MBInvertedConvLayer(
              (inverted_bottleneck): Sequential(
                (conv): Conv2d(40, 120, kernel_size=(1, 1), stride=(1, 1), bias=False)
                (bn): BatchNorm2d(120, eps=0.001, momentum=0.1, affine=True, track_running_stats=True)
                (act): ReLU6(inplace=True)
              )
              (depth_conv): Sequential(
                (conv): Conv2d(120, 120, kernel_size=(5, 5), stride=(1, 1), padding=(2, 2), groups=120, bias=False)
                (bn): BatchNorm2d(120, eps=0.001, momentum=0.1, affine=True, track_running_stats=True)
                (act): ReLU6(inplace=True)
              )
              (point_linear): Sequential(
                (conv): Conv2d(120, 40, kernel_size=(1, 1), stride=(1, 1), bias=False)
                (bn): BatchNorm2d(40, eps=0.001, momentum=0.1, affine=True, track_running_stats=True)
              )
            )
            (3): MBInvertedConvLayer(
              (inverted_bottleneck): Sequential(
                (conv): Conv2d(40, 240, kernel_size=(1, 1), stride=(1, 1), bias=False)
                (bn): BatchNorm2d(240, eps=0.001, momentum=0.1, affine=True, track_running_stats=True)
                (act): ReLU6(inplace=True)
              )
              (depth_conv): Sequential(
                (conv): Conv2d(240, 240, kernel_size=(5, 5), stride=(1, 1), padding=(2, 2), groups=240, bias=False)
                (bn): BatchNorm2d(240, eps=0.001, momentum=0.1, affine=True, track_running_stats=True)
                (act): ReLU6(inplace=True)
              )
              (point_linear): Sequential(
                (conv): Conv2d(240, 40, kernel_size=(1, 1), stride=(1, 1), bias=False)
                (bn): BatchNorm2d(40, eps=0.001, momentum=0.1, affine=True, track_running_stats=True)
              )
            )
            (4): MBInvertedConvLayer(
              (inverted_bottleneck): Sequential(
                (conv): Conv2d(40, 120, kernel_size=(1, 1), stride=(1, 1), bias=False)
                (bn): BatchNorm2d(120, eps=0.001, momentum=0.1, affine=True, track_running_stats=True)
                (act): ReLU6(inplace=True)
              )
              (depth_conv): Sequential(
                (conv): Conv2d(120, 120, kernel_size=(7, 7), stride=(1, 1), padding=(3, 3), groups=120, bias=False)
                (bn): BatchNorm2d(120, eps=0.001, momentum=0.1, affine=True, track_running_stats=True)
                (act): ReLU6(inplace=True)
              )
              (point_linear): Sequential(
                (conv): Conv2d(120, 40, kernel_size=(1, 1), stride=(1, 1), bias=False)
                (bn): BatchNorm2d(40, eps=0.001, momentum=0.1, affine=True, track_running_stats=True)
              )
            )
            (5): MBInvertedConvLayer(
              (inverted_bottleneck): Sequential(
                (conv): Conv2d(40, 240, kernel_size=(1, 1), stride=(1, 1), bias=False)
                (bn): BatchNorm2d(240, eps=0.001, momentum=0.1, affine=True, track_running_stats=True)
                (act): ReLU6(inplace=True)
              )
              (depth_conv): Sequential(
                (conv): Conv2d(240, 240, kernel_size=(7, 7), stride=(1, 1), padding=(3, 3), groups=240, bias=False)
                (bn): BatchNorm2d(240, eps=0.001, momentum=0.1, affine=True, track_running_stats=True)
                (act): ReLU6(inplace=True)
              )
              (point_linear): Sequential(
                (conv): Conv2d(240, 40, kernel_size=(1, 1), stride=(1, 1), bias=False)
                (bn): BatchNorm2d(40, eps=0.001, momentum=0.1, affine=True, track_running_stats=True)
              )
            )
            (6): ZeroLayer()
          )
        )
        (shortcut): IdentityLayer()
      )
      (9): MobileInvertedResidualBlock(
        (mobile_inverted_conv): MixedEdge(
          (candidate_ops): ModuleList(
            (0): MBInvertedConvLayer(
              (inverted_bottleneck): Sequential(
                (conv): Conv2d(40, 120, kernel_size=(1, 1), stride=(1, 1), bias=False)
                (bn): BatchNorm2d(120, eps=0.001, momentum=0.1, affine=True, track_running_stats=True)
                (act): ReLU6(inplace=True)
              )
              (depth_conv): Sequential(
                (conv): Conv2d(120, 120, kernel_size=(3, 3), stride=(2, 2), padding=(1, 1), groups=120, bias=False)
                (bn): BatchNorm2d(120, eps=0.001, momentum=0.1, affine=True, track_running_stats=True)
                (act): ReLU6(inplace=True)
              )
              (point_linear): Sequential(
                (conv): Conv2d(120, 80, kernel_size=(1, 1), stride=(1, 1), bias=False)
                (bn): BatchNorm2d(80, eps=0.001, momentum=0.1, affine=True, track_running_stats=True)
              )
            )
            (1): MBInvertedConvLayer(
              (inverted_bottleneck): Sequential(
                (conv): Conv2d(40, 240, kernel_size=(1, 1), stride=(1, 1), bias=False)
                (bn): BatchNorm2d(240, eps=0.001, momentum=0.1, affine=True, track_running_stats=True)
                (act): ReLU6(inplace=True)
              )
              (depth_conv): Sequential(
                (conv): Conv2d(240, 240, kernel_size=(3, 3), stride=(2, 2), padding=(1, 1), groups=240, bias=False)
                (bn): BatchNorm2d(240, eps=0.001, momentum=0.1, affine=True, track_running_stats=True)
                (act): ReLU6(inplace=True)
              )
              (point_linear): Sequential(
                (conv): Conv2d(240, 80, kernel_size=(1, 1), stride=(1, 1), bias=False)
                (bn): BatchNorm2d(80, eps=0.001, momentum=0.1, affine=True, track_running_stats=True)
              )
            )
            (2): MBInvertedConvLayer(
              (inverted_bottleneck): Sequential(
                (conv): Conv2d(40, 120, kernel_size=(1, 1), stride=(1, 1), bias=False)
                (bn): BatchNorm2d(120, eps=0.001, momentum=0.1, affine=True, track_running_stats=True)
                (act): ReLU6(inplace=True)
              )
              (depth_conv): Sequential(
                (conv): Conv2d(120, 120, kernel_size=(5, 5), stride=(2, 2), padding=(2, 2), groups=120, bias=False)
                (bn): BatchNorm2d(120, eps=0.001, momentum=0.1, affine=True, track_running_stats=True)
                (act): ReLU6(inplace=True)
              )
              (point_linear): Sequential(
                (conv): Conv2d(120, 80, kernel_size=(1, 1), stride=(1, 1), bias=False)
                (bn): BatchNorm2d(80, eps=0.001, momentum=0.1, affine=True, track_running_stats=True)
              )
            )
            (3): MBInvertedConvLayer(
              (inverted_bottleneck): Sequential(
                (conv): Conv2d(40, 240, kernel_size=(1, 1), stride=(1, 1), bias=False)
                (bn): BatchNorm2d(240, eps=0.001, momentum=0.1, affine=True, track_running_stats=True)
                (act): ReLU6(inplace=True)
              )
              (depth_conv): Sequential(
                (conv): Conv2d(240, 240, kernel_size=(5, 5), stride=(2, 2), padding=(2, 2), groups=240, bias=False)
                (bn): BatchNorm2d(240, eps=0.001, momentum=0.1, affine=True, track_running_stats=True)
                (act): ReLU6(inplace=True)
              )
              (point_linear): Sequential(
                (conv): Conv2d(240, 80, kernel_size=(1, 1), stride=(1, 1), bias=False)
                (bn): BatchNorm2d(80, eps=0.001, momentum=0.1, affine=True, track_running_stats=True)
              )
            )
            (4): MBInvertedConvLayer(
              (inverted_bottleneck): Sequential(
                (conv): Conv2d(40, 120, kernel_size=(1, 1), stride=(1, 1), bias=False)
                (bn): BatchNorm2d(120, eps=0.001, momentum=0.1, affine=True, track_running_stats=True)
                (act): ReLU6(inplace=True)
              )
              (depth_conv): Sequential(
                (conv): Conv2d(120, 120, kernel_size=(7, 7), stride=(2, 2), padding=(3, 3), groups=120, bias=False)
                (bn): BatchNorm2d(120, eps=0.001, momentum=0.1, affine=True, track_running_stats=True)
                (act): ReLU6(inplace=True)
              )
              (point_linear): Sequential(
                (conv): Conv2d(120, 80, kernel_size=(1, 1), stride=(1, 1), bias=False)
                (bn): BatchNorm2d(80, eps=0.001, momentum=0.1, affine=True, track_running_stats=True)
              )
            )
            (5): MBInvertedConvLayer(
              (inverted_bottleneck): Sequential(
                (conv): Conv2d(40, 240, kernel_size=(1, 1), stride=(1, 1), bias=False)
                (bn): BatchNorm2d(240, eps=0.001, momentum=0.1, affine=True, track_running_stats=True)
                (act): ReLU6(inplace=True)
              )
              (depth_conv): Sequential(
                (conv): Conv2d(240, 240, kernel_size=(7, 7), stride=(2, 2), padding=(3, 3), groups=240, bias=False)
                (bn): BatchNorm2d(240, eps=0.001, momentum=0.1, affine=True, track_running_stats=True)
                (act): ReLU6(inplace=True)
              )
              (point_linear): Sequential(
                (conv): Conv2d(240, 80, kernel_size=(1, 1), stride=(1, 1), bias=False)
                (bn): BatchNorm2d(80, eps=0.001, momentum=0.1, affine=True, track_running_stats=True)
              )
            )
          )
        )
      )
      (10): MobileInvertedResidualBlock(
        (mobile_inverted_conv): MixedEdge(
          (candidate_ops): ModuleList(
            (0): MBInvertedConvLayer(
              (inverted_bottleneck): Sequential(
                (conv): Conv2d(80, 240, kernel_size=(1, 1), stride=(1, 1), bias=False)
                (bn): BatchNorm2d(240, eps=0.001, momentum=0.1, affine=True, track_running_stats=True)
                (act): ReLU6(inplace=True)
              )
              (depth_conv): Sequential(
                (conv): Conv2d(240, 240, kernel_size=(3, 3), stride=(1, 1), padding=(1, 1), groups=240, bias=False)
                (bn): BatchNorm2d(240, eps=0.001, momentum=0.1, affine=True, track_running_stats=True)
                (act): ReLU6(inplace=True)
              )
              (point_linear): Sequential(
                (conv): Conv2d(240, 80, kernel_size=(1, 1), stride=(1, 1), bias=False)
                (bn): BatchNorm2d(80, eps=0.001, momentum=0.1, affine=True, track_running_stats=True)
              )
            )
            (1): MBInvertedConvLayer(
              (inverted_bottleneck): Sequential(
                (conv): Conv2d(80, 480, kernel_size=(1, 1), stride=(1, 1), bias=False)
                (bn): BatchNorm2d(480, eps=0.001, momentum=0.1, affine=True, track_running_stats=True)
                (act): ReLU6(inplace=True)
              )
              (depth_conv): Sequential(
                (conv): Conv2d(480, 480, kernel_size=(3, 3), stride=(1, 1), padding=(1, 1), groups=480, bias=False)
                (bn): BatchNorm2d(480, eps=0.001, momentum=0.1, affine=True, track_running_stats=True)
                (act): ReLU6(inplace=True)
              )
              (point_linear): Sequential(
                (conv): Conv2d(480, 80, kernel_size=(1, 1), stride=(1, 1), bias=False)
                (bn): BatchNorm2d(80, eps=0.001, momentum=0.1, affine=True, track_running_stats=True)
              )
            )
            (2): MBInvertedConvLayer(
              (inverted_bottleneck): Sequential(
                (conv): Conv2d(80, 240, kernel_size=(1, 1), stride=(1, 1), bias=False)
                (bn): BatchNorm2d(240, eps=0.001, momentum=0.1, affine=True, track_running_stats=True)
                (act): ReLU6(inplace=True)
              )
              (depth_conv): Sequential(
                (conv): Conv2d(240, 240, kernel_size=(5, 5), stride=(1, 1), padding=(2, 2), groups=240, bias=False)
                (bn): BatchNorm2d(240, eps=0.001, momentum=0.1, affine=True, track_running_stats=True)
                (act): ReLU6(inplace=True)
              )
              (point_linear): Sequential(
                (conv): Conv2d(240, 80, kernel_size=(1, 1), stride=(1, 1), bias=False)
                (bn): BatchNorm2d(80, eps=0.001, momentum=0.1, affine=True, track_running_stats=True)
              )
            )
            (3): MBInvertedConvLayer(
              (inverted_bottleneck): Sequential(
                (conv): Conv2d(80, 480, kernel_size=(1, 1), stride=(1, 1), bias=False)
                (bn): BatchNorm2d(480, eps=0.001, momentum=0.1, affine=True, track_running_stats=True)
                (act): ReLU6(inplace=True)
              )
              (depth_conv): Sequential(
                (conv): Conv2d(480, 480, kernel_size=(5, 5), stride=(1, 1), padding=(2, 2), groups=480, bias=False)
                (bn): BatchNorm2d(480, eps=0.001, momentum=0.1, affine=True, track_running_stats=True)
                (act): ReLU6(inplace=True)
              )
              (point_linear): Sequential(
                (conv): Conv2d(480, 80, kernel_size=(1, 1), stride=(1, 1), bias=False)
                (bn): BatchNorm2d(80, eps=0.001, momentum=0.1, affine=True, track_running_stats=True)
              )
            )
            (4): MBInvertedConvLayer(
              (inverted_bottleneck): Sequential(
                (conv): Conv2d(80, 240, kernel_size=(1, 1), stride=(1, 1), bias=False)
                (bn): BatchNorm2d(240, eps=0.001, momentum=0.1, affine=True, track_running_stats=True)
                (act): ReLU6(inplace=True)
              )
              (depth_conv): Sequential(
                (conv): Conv2d(240, 240, kernel_size=(7, 7), stride=(1, 1), padding=(3, 3), groups=240, bias=False)
                (bn): BatchNorm2d(240, eps=0.001, momentum=0.1, affine=True, track_running_stats=True)
                (act): ReLU6(inplace=True)
              )
              (point_linear): Sequential(
                (conv): Conv2d(240, 80, kernel_size=(1, 1), stride=(1, 1), bias=False)
                (bn): BatchNorm2d(80, eps=0.001, momentum=0.1, affine=True, track_running_stats=True)
              )
            )
            (5): MBInvertedConvLayer(
              (inverted_bottleneck): Sequential(
                (conv): Conv2d(80, 480, kernel_size=(1, 1), stride=(1, 1), bias=False)
                (bn): BatchNorm2d(480, eps=0.001, momentum=0.1, affine=True, track_running_stats=True)
                (act): ReLU6(inplace=True)
              )
              (depth_conv): Sequential(
                (conv): Conv2d(480, 480, kernel_size=(7, 7), stride=(1, 1), padding=(3, 3), groups=480, bias=False)
                (bn): BatchNorm2d(480, eps=0.001, momentum=0.1, affine=True, track_running_stats=True)
                (act): ReLU6(inplace=True)
              )
              (point_linear): Sequential(
                (conv): Conv2d(480, 80, kernel_size=(1, 1), stride=(1, 1), bias=False)
                (bn): BatchNorm2d(80, eps=0.001, momentum=0.1, affine=True, track_running_stats=True)
              )
            )
            (6): ZeroLayer()
          )
        )
        (shortcut): IdentityLayer()
      )
      (11): MobileInvertedResidualBlock(
        (mobile_inverted_conv): MixedEdge(
          (candidate_ops): ModuleList(
            (0): MBInvertedConvLayer(
              (inverted_bottleneck): Sequential(
                (conv): Conv2d(80, 240, kernel_size=(1, 1), stride=(1, 1), bias=False)
                (bn): BatchNorm2d(240, eps=0.001, momentum=0.1, affine=True, track_running_stats=True)
                (act): ReLU6(inplace=True)
              )
              (depth_conv): Sequential(
                (conv): Conv2d(240, 240, kernel_size=(3, 3), stride=(1, 1), padding=(1, 1), groups=240, bias=False)
                (bn): BatchNorm2d(240, eps=0.001, momentum=0.1, affine=True, track_running_stats=True)
                (act): ReLU6(inplace=True)
              )
              (point_linear): Sequential(
                (conv): Conv2d(240, 80, kernel_size=(1, 1), stride=(1, 1), bias=False)
                (bn): BatchNorm2d(80, eps=0.001, momentum=0.1, affine=True, track_running_stats=True)
              )
            )
            (1): MBInvertedConvLayer(
              (inverted_bottleneck): Sequential(
                (conv): Conv2d(80, 480, kernel_size=(1, 1), stride=(1, 1), bias=False)
                (bn): BatchNorm2d(480, eps=0.001, momentum=0.1, affine=True, track_running_stats=True)
                (act): ReLU6(inplace=True)
              )
              (depth_conv): Sequential(
                (conv): Conv2d(480, 480, kernel_size=(3, 3), stride=(1, 1), padding=(1, 1), groups=480, bias=False)
                (bn): BatchNorm2d(480, eps=0.001, momentum=0.1, affine=True, track_running_stats=True)
                (act): ReLU6(inplace=True)
              )
              (point_linear): Sequential(
                (conv): Conv2d(480, 80, kernel_size=(1, 1), stride=(1, 1), bias=False)
                (bn): BatchNorm2d(80, eps=0.001, momentum=0.1, affine=True, track_running_stats=True)
              )
            )
            (2): MBInvertedConvLayer(
              (inverted_bottleneck): Sequential(
                (conv): Conv2d(80, 240, kernel_size=(1, 1), stride=(1, 1), bias=False)
                (bn): BatchNorm2d(240, eps=0.001, momentum=0.1, affine=True, track_running_stats=True)
                (act): ReLU6(inplace=True)
              )
              (depth_conv): Sequential(
                (conv): Conv2d(240, 240, kernel_size=(5, 5), stride=(1, 1), padding=(2, 2), groups=240, bias=False)
                (bn): BatchNorm2d(240, eps=0.001, momentum=0.1, affine=True, track_running_stats=True)
                (act): ReLU6(inplace=True)
              )
              (point_linear): Sequential(
                (conv): Conv2d(240, 80, kernel_size=(1, 1), stride=(1, 1), bias=False)
                (bn): BatchNorm2d(80, eps=0.001, momentum=0.1, affine=True, track_running_stats=True)
              )
            )
            (3): MBInvertedConvLayer(
              (inverted_bottleneck): Sequential(
                (conv): Conv2d(80, 480, kernel_size=(1, 1), stride=(1, 1), bias=False)
                (bn): BatchNorm2d(480, eps=0.001, momentum=0.1, affine=True, track_running_stats=True)
                (act): ReLU6(inplace=True)
              )
              (depth_conv): Sequential(
                (conv): Conv2d(480, 480, kernel_size=(5, 5), stride=(1, 1), padding=(2, 2), groups=480, bias=False)
                (bn): BatchNorm2d(480, eps=0.001, momentum=0.1, affine=True, track_running_stats=True)
                (act): ReLU6(inplace=True)
              )
              (point_linear): Sequential(
                (conv): Conv2d(480, 80, kernel_size=(1, 1), stride=(1, 1), bias=False)
                (bn): BatchNorm2d(80, eps=0.001, momentum=0.1, affine=True, track_running_stats=True)
              )
            )
            (4): MBInvertedConvLayer(
              (inverted_bottleneck): Sequential(
                (conv): Conv2d(80, 240, kernel_size=(1, 1), stride=(1, 1), bias=False)
                (bn): BatchNorm2d(240, eps=0.001, momentum=0.1, affine=True, track_running_stats=True)
                (act): ReLU6(inplace=True)
              )
              (depth_conv): Sequential(
                (conv): Conv2d(240, 240, kernel_size=(7, 7), stride=(1, 1), padding=(3, 3), groups=240, bias=False)
                (bn): BatchNorm2d(240, eps=0.001, momentum=0.1, affine=True, track_running_stats=True)
                (act): ReLU6(inplace=True)
              )
              (point_linear): Sequential(
                (conv): Conv2d(240, 80, kernel_size=(1, 1), stride=(1, 1), bias=False)
                (bn): BatchNorm2d(80, eps=0.001, momentum=0.1, affine=True, track_running_stats=True)
              )
            )
            (5): MBInvertedConvLayer(
              (inverted_bottleneck): Sequential(
                (conv): Conv2d(80, 480, kernel_size=(1, 1), stride=(1, 1), bias=False)
                (bn): BatchNorm2d(480, eps=0.001, momentum=0.1, affine=True, track_running_stats=True)
                (act): ReLU6(inplace=True)
              )
              (depth_conv): Sequential(
                (conv): Conv2d(480, 480, kernel_size=(7, 7), stride=(1, 1), padding=(3, 3), groups=480, bias=False)
                (bn): BatchNorm2d(480, eps=0.001, momentum=0.1, affine=True, track_running_stats=True)
                (act): ReLU6(inplace=True)
              )
              (point_linear): Sequential(
                (conv): Conv2d(480, 80, kernel_size=(1, 1), stride=(1, 1), bias=False)
                (bn): BatchNorm2d(80, eps=0.001, momentum=0.1, affine=True, track_running_stats=True)
              )
            )
            (6): ZeroLayer()
          )
        )
        (shortcut): IdentityLayer()
      )
      (12): MobileInvertedResidualBlock(
        (mobile_inverted_conv): MixedEdge(
          (candidate_ops): ModuleList(
            (0): MBInvertedConvLayer(
              (inverted_bottleneck): Sequential(
                (conv): Conv2d(80, 240, kernel_size=(1, 1), stride=(1, 1), bias=False)
                (bn): BatchNorm2d(240, eps=0.001, momentum=0.1, affine=True, track_running_stats=True)
                (act): ReLU6(inplace=True)
              )
              (depth_conv): Sequential(
                (conv): Conv2d(240, 240, kernel_size=(3, 3), stride=(1, 1), padding=(1, 1), groups=240, bias=False)
                (bn): BatchNorm2d(240, eps=0.001, momentum=0.1, affine=True, track_running_stats=True)
                (act): ReLU6(inplace=True)
              )
              (point_linear): Sequential(
                (conv): Conv2d(240, 80, kernel_size=(1, 1), stride=(1, 1), bias=False)
                (bn): BatchNorm2d(80, eps=0.001, momentum=0.1, affine=True, track_running_stats=True)
              )
            )
            (1): MBInvertedConvLayer(
              (inverted_bottleneck): Sequential(
                (conv): Conv2d(80, 480, kernel_size=(1, 1), stride=(1, 1), bias=False)
                (bn): BatchNorm2d(480, eps=0.001, momentum=0.1, affine=True, track_running_stats=True)
                (act): ReLU6(inplace=True)
              )
              (depth_conv): Sequential(
                (conv): Conv2d(480, 480, kernel_size=(3, 3), stride=(1, 1), padding=(1, 1), groups=480, bias=False)
                (bn): BatchNorm2d(480, eps=0.001, momentum=0.1, affine=True, track_running_stats=True)
                (act): ReLU6(inplace=True)
              )
              (point_linear): Sequential(
                (conv): Conv2d(480, 80, kernel_size=(1, 1), stride=(1, 1), bias=False)
                (bn): BatchNorm2d(80, eps=0.001, momentum=0.1, affine=True, track_running_stats=True)
              )
            )
            (2): MBInvertedConvLayer(
              (inverted_bottleneck): Sequential(
                (conv): Conv2d(80, 240, kernel_size=(1, 1), stride=(1, 1), bias=False)
                (bn): BatchNorm2d(240, eps=0.001, momentum=0.1, affine=True, track_running_stats=True)
                (act): ReLU6(inplace=True)
              )
              (depth_conv): Sequential(
                (conv): Conv2d(240, 240, kernel_size=(5, 5), stride=(1, 1), padding=(2, 2), groups=240, bias=False)
                (bn): BatchNorm2d(240, eps=0.001, momentum=0.1, affine=True, track_running_stats=True)
                (act): ReLU6(inplace=True)
              )
              (point_linear): Sequential(
                (conv): Conv2d(240, 80, kernel_size=(1, 1), stride=(1, 1), bias=False)
                (bn): BatchNorm2d(80, eps=0.001, momentum=0.1, affine=True, track_running_stats=True)
              )
            )
            (3): MBInvertedConvLayer(
              (inverted_bottleneck): Sequential(
                (conv): Conv2d(80, 480, kernel_size=(1, 1), stride=(1, 1), bias=False)
                (bn): BatchNorm2d(480, eps=0.001, momentum=0.1, affine=True, track_running_stats=True)
                (act): ReLU6(inplace=True)
              )
              (depth_conv): Sequential(
                (conv): Conv2d(480, 480, kernel_size=(5, 5), stride=(1, 1), padding=(2, 2), groups=480, bias=False)
                (bn): BatchNorm2d(480, eps=0.001, momentum=0.1, affine=True, track_running_stats=True)
                (act): ReLU6(inplace=True)
              )
              (point_linear): Sequential(
                (conv): Conv2d(480, 80, kernel_size=(1, 1), stride=(1, 1), bias=False)
                (bn): BatchNorm2d(80, eps=0.001, momentum=0.1, affine=True, track_running_stats=True)
              )
            )
            (4): MBInvertedConvLayer(
              (inverted_bottleneck): Sequential(
                (conv): Conv2d(80, 240, kernel_size=(1, 1), stride=(1, 1), bias=False)
                (bn): BatchNorm2d(240, eps=0.001, momentum=0.1, affine=True, track_running_stats=True)
                (act): ReLU6(inplace=True)
              )
              (depth_conv): Sequential(
                (conv): Conv2d(240, 240, kernel_size=(7, 7), stride=(1, 1), padding=(3, 3), groups=240, bias=False)
                (bn): BatchNorm2d(240, eps=0.001, momentum=0.1, affine=True, track_running_stats=True)
                (act): ReLU6(inplace=True)
              )
              (point_linear): Sequential(
                (conv): Conv2d(240, 80, kernel_size=(1, 1), stride=(1, 1), bias=False)
                (bn): BatchNorm2d(80, eps=0.001, momentum=0.1, affine=True, track_running_stats=True)
              )
            )
            (5): MBInvertedConvLayer(
              (inverted_bottleneck): Sequential(
                (conv): Conv2d(80, 480, kernel_size=(1, 1), stride=(1, 1), bias=False)
                (bn): BatchNorm2d(480, eps=0.001, momentum=0.1, affine=True, track_running_stats=True)
                (act): ReLU6(inplace=True)
              )
              (depth_conv): Sequential(
                (conv): Conv2d(480, 480, kernel_size=(7, 7), stride=(1, 1), padding=(3, 3), groups=480, bias=False)
                (bn): BatchNorm2d(480, eps=0.001, momentum=0.1, affine=True, track_running_stats=True)
                (act): ReLU6(inplace=True)
              )
              (point_linear): Sequential(
                (conv): Conv2d(480, 80, kernel_size=(1, 1), stride=(1, 1), bias=False)
                (bn): BatchNorm2d(80, eps=0.001, momentum=0.1, affine=True, track_running_stats=True)
              )
            )
            (6): ZeroLayer()
          )
        )
        (shortcut): IdentityLayer()
      )
      (13): MobileInvertedResidualBlock(
        (mobile_inverted_conv): MixedEdge(
          (candidate_ops): ModuleList(
            (0): MBInvertedConvLayer(
              (inverted_bottleneck): Sequential(
                (conv): Conv2d(80, 240, kernel_size=(1, 1), stride=(1, 1), bias=False)
                (bn): BatchNorm2d(240, eps=0.001, momentum=0.1, affine=True, track_running_stats=True)
                (act): ReLU6(inplace=True)
              )
              (depth_conv): Sequential(
                (conv): Conv2d(240, 240, kernel_size=(3, 3), stride=(1, 1), padding=(1, 1), groups=240, bias=False)
                (bn): BatchNorm2d(240, eps=0.001, momentum=0.1, affine=True, track_running_stats=True)
                (act): ReLU6(inplace=True)
              )
              (point_linear): Sequential(
                (conv): Conv2d(240, 96, kernel_size=(1, 1), stride=(1, 1), bias=False)
                (bn): BatchNorm2d(96, eps=0.001, momentum=0.1, affine=True, track_running_stats=True)
              )
            )
            (1): MBInvertedConvLayer(
              (inverted_bottleneck): Sequential(
                (conv): Conv2d(80, 480, kernel_size=(1, 1), stride=(1, 1), bias=False)
                (bn): BatchNorm2d(480, eps=0.001, momentum=0.1, affine=True, track_running_stats=True)
                (act): ReLU6(inplace=True)
              )
              (depth_conv): Sequential(
                (conv): Conv2d(480, 480, kernel_size=(3, 3), stride=(1, 1), padding=(1, 1), groups=480, bias=False)
                (bn): BatchNorm2d(480, eps=0.001, momentum=0.1, affine=True, track_running_stats=True)
                (act): ReLU6(inplace=True)
              )
              (point_linear): Sequential(
                (conv): Conv2d(480, 96, kernel_size=(1, 1), stride=(1, 1), bias=False)
                (bn): BatchNorm2d(96, eps=0.001, momentum=0.1, affine=True, track_running_stats=True)
              )
            )
            (2): MBInvertedConvLayer(
              (inverted_bottleneck): Sequential(
                (conv): Conv2d(80, 240, kernel_size=(1, 1), stride=(1, 1), bias=False)
                (bn): BatchNorm2d(240, eps=0.001, momentum=0.1, affine=True, track_running_stats=True)
                (act): ReLU6(inplace=True)
              )
              (depth_conv): Sequential(
                (conv): Conv2d(240, 240, kernel_size=(5, 5), stride=(1, 1), padding=(2, 2), groups=240, bias=False)
                (bn): BatchNorm2d(240, eps=0.001, momentum=0.1, affine=True, track_running_stats=True)
                (act): ReLU6(inplace=True)
              )
              (point_linear): Sequential(
                (conv): Conv2d(240, 96, kernel_size=(1, 1), stride=(1, 1), bias=False)
                (bn): BatchNorm2d(96, eps=0.001, momentum=0.1, affine=True, track_running_stats=True)
              )
            )
            (3): MBInvertedConvLayer(
              (inverted_bottleneck): Sequential(
                (conv): Conv2d(80, 480, kernel_size=(1, 1), stride=(1, 1), bias=False)
                (bn): BatchNorm2d(480, eps=0.001, momentum=0.1, affine=True, track_running_stats=True)
                (act): ReLU6(inplace=True)
              )
              (depth_conv): Sequential(
                (conv): Conv2d(480, 480, kernel_size=(5, 5), stride=(1, 1), padding=(2, 2), groups=480, bias=False)
                (bn): BatchNorm2d(480, eps=0.001, momentum=0.1, affine=True, track_running_stats=True)
                (act): ReLU6(inplace=True)
              )
              (point_linear): Sequential(
                (conv): Conv2d(480, 96, kernel_size=(1, 1), stride=(1, 1), bias=False)
                (bn): BatchNorm2d(96, eps=0.001, momentum=0.1, affine=True, track_running_stats=True)
              )
            )
            (4): MBInvertedConvLayer(
              (inverted_bottleneck): Sequential(
                (conv): Conv2d(80, 240, kernel_size=(1, 1), stride=(1, 1), bias=False)
                (bn): BatchNorm2d(240, eps=0.001, momentum=0.1, affine=True, track_running_stats=True)
                (act): ReLU6(inplace=True)
              )
              (depth_conv): Sequential(
                (conv): Conv2d(240, 240, kernel_size=(7, 7), stride=(1, 1), padding=(3, 3), groups=240, bias=False)
                (bn): BatchNorm2d(240, eps=0.001, momentum=0.1, affine=True, track_running_stats=True)
                (act): ReLU6(inplace=True)
              )
              (point_linear): Sequential(
                (conv): Conv2d(240, 96, kernel_size=(1, 1), stride=(1, 1), bias=False)
                (bn): BatchNorm2d(96, eps=0.001, momentum=0.1, affine=True, track_running_stats=True)
              )
            )
            (5): MBInvertedConvLayer(
              (inverted_bottleneck): Sequential(
                (conv): Conv2d(80, 480, kernel_size=(1, 1), stride=(1, 1), bias=False)
                (bn): BatchNorm2d(480, eps=0.001, momentum=0.1, affine=True, track_running_stats=True)
                (act): ReLU6(inplace=True)
              )
              (depth_conv): Sequential(
                (conv): Conv2d(480, 480, kernel_size=(7, 7), stride=(1, 1), padding=(3, 3), groups=480, bias=False)
                (bn): BatchNorm2d(480, eps=0.001, momentum=0.1, affine=True, track_running_stats=True)
                (act): ReLU6(inplace=True)
              )
              (point_linear): Sequential(
                (conv): Conv2d(480, 96, kernel_size=(1, 1), stride=(1, 1), bias=False)
                (bn): BatchNorm2d(96, eps=0.001, momentum=0.1, affine=True, track_running_stats=True)
              )
            )
          )
        )
      )
      (14): MobileInvertedResidualBlock(
        (mobile_inverted_conv): MixedEdge(
          (candidate_ops): ModuleList(
            (0): MBInvertedConvLayer(
              (inverted_bottleneck): Sequential(
                (conv): Conv2d(96, 288, kernel_size=(1, 1), stride=(1, 1), bias=False)
                (bn): BatchNorm2d(288, eps=0.001, momentum=0.1, affine=True, track_running_stats=True)
                (act): ReLU6(inplace=True)
              )
              (depth_conv): Sequential(
                (conv): Conv2d(288, 288, kernel_size=(3, 3), stride=(1, 1), padding=(1, 1), groups=288, bias=False)
                (bn): BatchNorm2d(288, eps=0.001, momentum=0.1, affine=True, track_running_stats=True)
                (act): ReLU6(inplace=True)
              )
              (point_linear): Sequential(
                (conv): Conv2d(288, 96, kernel_size=(1, 1), stride=(1, 1), bias=False)
                (bn): BatchNorm2d(96, eps=0.001, momentum=0.1, affine=True, track_running_stats=True)
              )
            )
            (1): MBInvertedConvLayer(
              (inverted_bottleneck): Sequential(
                (conv): Conv2d(96, 576, kernel_size=(1, 1), stride=(1, 1), bias=False)
                (bn): BatchNorm2d(576, eps=0.001, momentum=0.1, affine=True, track_running_stats=True)
                (act): ReLU6(inplace=True)
              )
              (depth_conv): Sequential(
                (conv): Conv2d(576, 576, kernel_size=(3, 3), stride=(1, 1), padding=(1, 1), groups=576, bias=False)
                (bn): BatchNorm2d(576, eps=0.001, momentum=0.1, affine=True, track_running_stats=True)
                (act): ReLU6(inplace=True)
              )
              (point_linear): Sequential(
                (conv): Conv2d(576, 96, kernel_size=(1, 1), stride=(1, 1), bias=False)
                (bn): BatchNorm2d(96, eps=0.001, momentum=0.1, affine=True, track_running_stats=True)
              )
            )
            (2): MBInvertedConvLayer(
              (inverted_bottleneck): Sequential(
                (conv): Conv2d(96, 288, kernel_size=(1, 1), stride=(1, 1), bias=False)
                (bn): BatchNorm2d(288, eps=0.001, momentum=0.1, affine=True, track_running_stats=True)
                (act): ReLU6(inplace=True)
              )
              (depth_conv): Sequential(
                (conv): Conv2d(288, 288, kernel_size=(5, 5), stride=(1, 1), padding=(2, 2), groups=288, bias=False)
                (bn): BatchNorm2d(288, eps=0.001, momentum=0.1, affine=True, track_running_stats=True)
                (act): ReLU6(inplace=True)
              )
              (point_linear): Sequential(
                (conv): Conv2d(288, 96, kernel_size=(1, 1), stride=(1, 1), bias=False)
                (bn): BatchNorm2d(96, eps=0.001, momentum=0.1, affine=True, track_running_stats=True)
              )
            )
            (3): MBInvertedConvLayer(
              (inverted_bottleneck): Sequential(
                (conv): Conv2d(96, 576, kernel_size=(1, 1), stride=(1, 1), bias=False)
                (bn): BatchNorm2d(576, eps=0.001, momentum=0.1, affine=True, track_running_stats=True)
                (act): ReLU6(inplace=True)
              )
              (depth_conv): Sequential(
                (conv): Conv2d(576, 576, kernel_size=(5, 5), stride=(1, 1), padding=(2, 2), groups=576, bias=False)
                (bn): BatchNorm2d(576, eps=0.001, momentum=0.1, affine=True, track_running_stats=True)
                (act): ReLU6(inplace=True)
              )
              (point_linear): Sequential(
                (conv): Conv2d(576, 96, kernel_size=(1, 1), stride=(1, 1), bias=False)
                (bn): BatchNorm2d(96, eps=0.001, momentum=0.1, affine=True, track_running_stats=True)
              )
            )
            (4): MBInvertedConvLayer(
              (inverted_bottleneck): Sequential(
                (conv): Conv2d(96, 288, kernel_size=(1, 1), stride=(1, 1), bias=False)
                (bn): BatchNorm2d(288, eps=0.001, momentum=0.1, affine=True, track_running_stats=True)
                (act): ReLU6(inplace=True)
              )
              (depth_conv): Sequential(
                (conv): Conv2d(288, 288, kernel_size=(7, 7), stride=(1, 1), padding=(3, 3), groups=288, bias=False)
                (bn): BatchNorm2d(288, eps=0.001, momentum=0.1, affine=True, track_running_stats=True)
                (act): ReLU6(inplace=True)
              )
              (point_linear): Sequential(
                (conv): Conv2d(288, 96, kernel_size=(1, 1), stride=(1, 1), bias=False)
                (bn): BatchNorm2d(96, eps=0.001, momentum=0.1, affine=True, track_running_stats=True)
              )
            )
            (5): MBInvertedConvLayer(
              (inverted_bottleneck): Sequential(
                (conv): Conv2d(96, 576, kernel_size=(1, 1), stride=(1, 1), bias=False)
                (bn): BatchNorm2d(576, eps=0.001, momentum=0.1, affine=True, track_running_stats=True)
                (act): ReLU6(inplace=True)
              )
              (depth_conv): Sequential(
                (conv): Conv2d(576, 576, kernel_size=(7, 7), stride=(1, 1), padding=(3, 3), groups=576, bias=False)
                (bn): BatchNorm2d(576, eps=0.001, momentum=0.1, affine=True, track_running_stats=True)
                (act): ReLU6(inplace=True)
              )
              (point_linear): Sequential(
                (conv): Conv2d(576, 96, kernel_size=(1, 1), stride=(1, 1), bias=False)
                (bn): BatchNorm2d(96, eps=0.001, momentum=0.1, affine=True, track_running_stats=True)
              )
            )
            (6): ZeroLayer()
          )
        )
        (shortcut): IdentityLayer()
      )
      (15): MobileInvertedResidualBlock(
        (mobile_inverted_conv): MixedEdge(
          (candidate_ops): ModuleList(
            (0): MBInvertedConvLayer(
              (inverted_bottleneck): Sequential(
                (conv): Conv2d(96, 288, kernel_size=(1, 1), stride=(1, 1), bias=False)
                (bn): BatchNorm2d(288, eps=0.001, momentum=0.1, affine=True, track_running_stats=True)
                (act): ReLU6(inplace=True)
              )
              (depth_conv): Sequential(
                (conv): Conv2d(288, 288, kernel_size=(3, 3), stride=(1, 1), padding=(1, 1), groups=288, bias=False)
                (bn): BatchNorm2d(288, eps=0.001, momentum=0.1, affine=True, track_running_stats=True)
                (act): ReLU6(inplace=True)
              )
              (point_linear): Sequential(
                (conv): Conv2d(288, 96, kernel_size=(1, 1), stride=(1, 1), bias=False)
                (bn): BatchNorm2d(96, eps=0.001, momentum=0.1, affine=True, track_running_stats=True)
              )
            )
            (1): MBInvertedConvLayer(
              (inverted_bottleneck): Sequential(
                (conv): Conv2d(96, 576, kernel_size=(1, 1), stride=(1, 1), bias=False)
                (bn): BatchNorm2d(576, eps=0.001, momentum=0.1, affine=True, track_running_stats=True)
                (act): ReLU6(inplace=True)
              )
              (depth_conv): Sequential(
                (conv): Conv2d(576, 576, kernel_size=(3, 3), stride=(1, 1), padding=(1, 1), groups=576, bias=False)
                (bn): BatchNorm2d(576, eps=0.001, momentum=0.1, affine=True, track_running_stats=True)
                (act): ReLU6(inplace=True)
              )
              (point_linear): Sequential(
                (conv): Conv2d(576, 96, kernel_size=(1, 1), stride=(1, 1), bias=False)
                (bn): BatchNorm2d(96, eps=0.001, momentum=0.1, affine=True, track_running_stats=True)
              )
            )
            (2): MBInvertedConvLayer(
              (inverted_bottleneck): Sequential(
                (conv): Conv2d(96, 288, kernel_size=(1, 1), stride=(1, 1), bias=False)
                (bn): BatchNorm2d(288, eps=0.001, momentum=0.1, affine=True, track_running_stats=True)
                (act): ReLU6(inplace=True)
              )
              (depth_conv): Sequential(
                (conv): Conv2d(288, 288, kernel_size=(5, 5), stride=(1, 1), padding=(2, 2), groups=288, bias=False)
                (bn): BatchNorm2d(288, eps=0.001, momentum=0.1, affine=True, track_running_stats=True)
                (act): ReLU6(inplace=True)
              )
              (point_linear): Sequential(
                (conv): Conv2d(288, 96, kernel_size=(1, 1), stride=(1, 1), bias=False)
                (bn): BatchNorm2d(96, eps=0.001, momentum=0.1, affine=True, track_running_stats=True)
              )
            )
            (3): MBInvertedConvLayer(
              (inverted_bottleneck): Sequential(
                (conv): Conv2d(96, 576, kernel_size=(1, 1), stride=(1, 1), bias=False)
                (bn): BatchNorm2d(576, eps=0.001, momentum=0.1, affine=True, track_running_stats=True)
                (act): ReLU6(inplace=True)
              )
              (depth_conv): Sequential(
                (conv): Conv2d(576, 576, kernel_size=(5, 5), stride=(1, 1), padding=(2, 2), groups=576, bias=False)
                (bn): BatchNorm2d(576, eps=0.001, momentum=0.1, affine=True, track_running_stats=True)
                (act): ReLU6(inplace=True)
              )
              (point_linear): Sequential(
                (conv): Conv2d(576, 96, kernel_size=(1, 1), stride=(1, 1), bias=False)
                (bn): BatchNorm2d(96, eps=0.001, momentum=0.1, affine=True, track_running_stats=True)
              )
            )
            (4): MBInvertedConvLayer(
              (inverted_bottleneck): Sequential(
                (conv): Conv2d(96, 288, kernel_size=(1, 1), stride=(1, 1), bias=False)
                (bn): BatchNorm2d(288, eps=0.001, momentum=0.1, affine=True, track_running_stats=True)
                (act): ReLU6(inplace=True)
              )
              (depth_conv): Sequential(
                (conv): Conv2d(288, 288, kernel_size=(7, 7), stride=(1, 1), padding=(3, 3), groups=288, bias=False)
                (bn): BatchNorm2d(288, eps=0.001, momentum=0.1, affine=True, track_running_stats=True)
                (act): ReLU6(inplace=True)
              )
              (point_linear): Sequential(
                (conv): Conv2d(288, 96, kernel_size=(1, 1), stride=(1, 1), bias=False)
                (bn): BatchNorm2d(96, eps=0.001, momentum=0.1, affine=True, track_running_stats=True)
              )
            )
            (5): MBInvertedConvLayer(
              (inverted_bottleneck): Sequential(
                (conv): Conv2d(96, 576, kernel_size=(1, 1), stride=(1, 1), bias=False)
                (bn): BatchNorm2d(576, eps=0.001, momentum=0.1, affine=True, track_running_stats=True)
                (act): ReLU6(inplace=True)
              )
              (depth_conv): Sequential(
                (conv): Conv2d(576, 576, kernel_size=(7, 7), stride=(1, 1), padding=(3, 3), groups=576, bias=False)
                (bn): BatchNorm2d(576, eps=0.001, momentum=0.1, affine=True, track_running_stats=True)
                (act): ReLU6(inplace=True)
              )
              (point_linear): Sequential(
                (conv): Conv2d(576, 96, kernel_size=(1, 1), stride=(1, 1), bias=False)
                (bn): BatchNorm2d(96, eps=0.001, momentum=0.1, affine=True, track_running_stats=True)
              )
            )
            (6): ZeroLayer()
          )
        )
        (shortcut): IdentityLayer()
      )
      (16): MobileInvertedResidualBlock(
        (mobile_inverted_conv): MixedEdge(
          (candidate_ops): ModuleList(
            (0): MBInvertedConvLayer(
              (inverted_bottleneck): Sequential(
                (conv): Conv2d(96, 288, kernel_size=(1, 1), stride=(1, 1), bias=False)
                (bn): BatchNorm2d(288, eps=0.001, momentum=0.1, affine=True, track_running_stats=True)
                (act): ReLU6(inplace=True)
              )
              (depth_conv): Sequential(
                (conv): Conv2d(288, 288, kernel_size=(3, 3), stride=(1, 1), padding=(1, 1), groups=288, bias=False)
                (bn): BatchNorm2d(288, eps=0.001, momentum=0.1, affine=True, track_running_stats=True)
                (act): ReLU6(inplace=True)
              )
              (point_linear): Sequential(
                (conv): Conv2d(288, 96, kernel_size=(1, 1), stride=(1, 1), bias=False)
                (bn): BatchNorm2d(96, eps=0.001, momentum=0.1, affine=True, track_running_stats=True)
              )
            )
            (1): MBInvertedConvLayer(
              (inverted_bottleneck): Sequential(
                (conv): Conv2d(96, 576, kernel_size=(1, 1), stride=(1, 1), bias=False)
                (bn): BatchNorm2d(576, eps=0.001, momentum=0.1, affine=True, track_running_stats=True)
                (act): ReLU6(inplace=True)
              )
              (depth_conv): Sequential(
                (conv): Conv2d(576, 576, kernel_size=(3, 3), stride=(1, 1), padding=(1, 1), groups=576, bias=False)
                (bn): BatchNorm2d(576, eps=0.001, momentum=0.1, affine=True, track_running_stats=True)
                (act): ReLU6(inplace=True)
              )
              (point_linear): Sequential(
                (conv): Conv2d(576, 96, kernel_size=(1, 1), stride=(1, 1), bias=False)
                (bn): BatchNorm2d(96, eps=0.001, momentum=0.1, affine=True, track_running_stats=True)
              )
            )
            (2): MBInvertedConvLayer(
              (inverted_bottleneck): Sequential(
                (conv): Conv2d(96, 288, kernel_size=(1, 1), stride=(1, 1), bias=False)
                (bn): BatchNorm2d(288, eps=0.001, momentum=0.1, affine=True, track_running_stats=True)
                (act): ReLU6(inplace=True)
              )
              (depth_conv): Sequential(
                (conv): Conv2d(288, 288, kernel_size=(5, 5), stride=(1, 1), padding=(2, 2), groups=288, bias=False)
                (bn): BatchNorm2d(288, eps=0.001, momentum=0.1, affine=True, track_running_stats=True)
                (act): ReLU6(inplace=True)
              )
              (point_linear): Sequential(
                (conv): Conv2d(288, 96, kernel_size=(1, 1), stride=(1, 1), bias=False)
                (bn): BatchNorm2d(96, eps=0.001, momentum=0.1, affine=True, track_running_stats=True)
              )
            )
            (3): MBInvertedConvLayer(
              (inverted_bottleneck): Sequential(
                (conv): Conv2d(96, 576, kernel_size=(1, 1), stride=(1, 1), bias=False)
                (bn): BatchNorm2d(576, eps=0.001, momentum=0.1, affine=True, track_running_stats=True)
                (act): ReLU6(inplace=True)
              )
              (depth_conv): Sequential(
                (conv): Conv2d(576, 576, kernel_size=(5, 5), stride=(1, 1), padding=(2, 2), groups=576, bias=False)
                (bn): BatchNorm2d(576, eps=0.001, momentum=0.1, affine=True, track_running_stats=True)
                (act): ReLU6(inplace=True)
              )
              (point_linear): Sequential(
                (conv): Conv2d(576, 96, kernel_size=(1, 1), stride=(1, 1), bias=False)
                (bn): BatchNorm2d(96, eps=0.001, momentum=0.1, affine=True, track_running_stats=True)
              )
            )
            (4): MBInvertedConvLayer(
              (inverted_bottleneck): Sequential(
                (conv): Conv2d(96, 288, kernel_size=(1, 1), stride=(1, 1), bias=False)
                (bn): BatchNorm2d(288, eps=0.001, momentum=0.1, affine=True, track_running_stats=True)
                (act): ReLU6(inplace=True)
              )
              (depth_conv): Sequential(
                (conv): Conv2d(288, 288, kernel_size=(7, 7), stride=(1, 1), padding=(3, 3), groups=288, bias=False)
                (bn): BatchNorm2d(288, eps=0.001, momentum=0.1, affine=True, track_running_stats=True)
                (act): ReLU6(inplace=True)
              )
              (point_linear): Sequential(
                (conv): Conv2d(288, 96, kernel_size=(1, 1), stride=(1, 1), bias=False)
                (bn): BatchNorm2d(96, eps=0.001, momentum=0.1, affine=True, track_running_stats=True)
              )
            )
            (5): MBInvertedConvLayer(
              (inverted_bottleneck): Sequential(
                (conv): Conv2d(96, 576, kernel_size=(1, 1), stride=(1, 1), bias=False)
                (bn): BatchNorm2d(576, eps=0.001, momentum=0.1, affine=True, track_running_stats=True)
                (act): ReLU6(inplace=True)
              )
              (depth_conv): Sequential(
                (conv): Conv2d(576, 576, kernel_size=(7, 7), stride=(1, 1), padding=(3, 3), groups=576, bias=False)
                (bn): BatchNorm2d(576, eps=0.001, momentum=0.1, affine=True, track_running_stats=True)
                (act): ReLU6(inplace=True)
              )
              (point_linear): Sequential(
                (conv): Conv2d(576, 96, kernel_size=(1, 1), stride=(1, 1), bias=False)
                (bn): BatchNorm2d(96, eps=0.001, momentum=0.1, affine=True, track_running_stats=True)
              )
            )
            (6): ZeroLayer()
          )
        )
        (shortcut): IdentityLayer()
      )
      (17): MobileInvertedResidualBlock(
        (mobile_inverted_conv): MixedEdge(
          (candidate_ops): ModuleList(
            (0): MBInvertedConvLayer(
              (inverted_bottleneck): Sequential(
                (conv): Conv2d(96, 288, kernel_size=(1, 1), stride=(1, 1), bias=False)
                (bn): BatchNorm2d(288, eps=0.001, momentum=0.1, affine=True, track_running_stats=True)
                (act): ReLU6(inplace=True)
              )
              (depth_conv): Sequential(
                (conv): Conv2d(288, 288, kernel_size=(3, 3), stride=(2, 2), padding=(1, 1), groups=288, bias=False)
                (bn): BatchNorm2d(288, eps=0.001, momentum=0.1, affine=True, track_running_stats=True)
                (act): ReLU6(inplace=True)
              )
              (point_linear): Sequential(
                (conv): Conv2d(288, 192, kernel_size=(1, 1), stride=(1, 1), bias=False)
                (bn): BatchNorm2d(192, eps=0.001, momentum=0.1, affine=True, track_running_stats=True)
              )
            )
            (1): MBInvertedConvLayer(
              (inverted_bottleneck): Sequential(
                (conv): Conv2d(96, 576, kernel_size=(1, 1), stride=(1, 1), bias=False)
                (bn): BatchNorm2d(576, eps=0.001, momentum=0.1, affine=True, track_running_stats=True)
                (act): ReLU6(inplace=True)
              )
              (depth_conv): Sequential(
                (conv): Conv2d(576, 576, kernel_size=(3, 3), stride=(2, 2), padding=(1, 1), groups=576, bias=False)
                (bn): BatchNorm2d(576, eps=0.001, momentum=0.1, affine=True, track_running_stats=True)
                (act): ReLU6(inplace=True)
              )
              (point_linear): Sequential(
                (conv): Conv2d(576, 192, kernel_size=(1, 1), stride=(1, 1), bias=False)
                (bn): BatchNorm2d(192, eps=0.001, momentum=0.1, affine=True, track_running_stats=True)
              )
            )
            (2): MBInvertedConvLayer(
              (inverted_bottleneck): Sequential(
                (conv): Conv2d(96, 288, kernel_size=(1, 1), stride=(1, 1), bias=False)
                (bn): BatchNorm2d(288, eps=0.001, momentum=0.1, affine=True, track_running_stats=True)
                (act): ReLU6(inplace=True)
              )
              (depth_conv): Sequential(
                (conv): Conv2d(288, 288, kernel_size=(5, 5), stride=(2, 2), padding=(2, 2), groups=288, bias=False)
                (bn): BatchNorm2d(288, eps=0.001, momentum=0.1, affine=True, track_running_stats=True)
                (act): ReLU6(inplace=True)
              )
              (point_linear): Sequential(
                (conv): Conv2d(288, 192, kernel_size=(1, 1), stride=(1, 1), bias=False)
                (bn): BatchNorm2d(192, eps=0.001, momentum=0.1, affine=True, track_running_stats=True)
              )
            )
            (3): MBInvertedConvLayer(
              (inverted_bottleneck): Sequential(
                (conv): Conv2d(96, 576, kernel_size=(1, 1), stride=(1, 1), bias=False)
                (bn): BatchNorm2d(576, eps=0.001, momentum=0.1, affine=True, track_running_stats=True)
                (act): ReLU6(inplace=True)
              )
              (depth_conv): Sequential(
                (conv): Conv2d(576, 576, kernel_size=(5, 5), stride=(2, 2), padding=(2, 2), groups=576, bias=False)
                (bn): BatchNorm2d(576, eps=0.001, momentum=0.1, affine=True, track_running_stats=True)
                (act): ReLU6(inplace=True)
              )
              (point_linear): Sequential(
                (conv): Conv2d(576, 192, kernel_size=(1, 1), stride=(1, 1), bias=False)
                (bn): BatchNorm2d(192, eps=0.001, momentum=0.1, affine=True, track_running_stats=True)
              )
            )
            (4): MBInvertedConvLayer(
              (inverted_bottleneck): Sequential(
                (conv): Conv2d(96, 288, kernel_size=(1, 1), stride=(1, 1), bias=False)
                (bn): BatchNorm2d(288, eps=0.001, momentum=0.1, affine=True, track_running_stats=True)
                (act): ReLU6(inplace=True)
              )
              (depth_conv): Sequential(
                (conv): Conv2d(288, 288, kernel_size=(7, 7), stride=(2, 2), padding=(3, 3), groups=288, bias=False)
                (bn): BatchNorm2d(288, eps=0.001, momentum=0.1, affine=True, track_running_stats=True)
                (act): ReLU6(inplace=True)
              )
              (point_linear): Sequential(
                (conv): Conv2d(288, 192, kernel_size=(1, 1), stride=(1, 1), bias=False)
                (bn): BatchNorm2d(192, eps=0.001, momentum=0.1, affine=True, track_running_stats=True)
              )
            )
            (5): MBInvertedConvLayer(
              (inverted_bottleneck): Sequential(
                (conv): Conv2d(96, 576, kernel_size=(1, 1), stride=(1, 1), bias=False)
                (bn): BatchNorm2d(576, eps=0.001, momentum=0.1, affine=True, track_running_stats=True)
                (act): ReLU6(inplace=True)
              )
              (depth_conv): Sequential(
                (conv): Conv2d(576, 576, kernel_size=(7, 7), stride=(2, 2), padding=(3, 3), groups=576, bias=False)
                (bn): BatchNorm2d(576, eps=0.001, momentum=0.1, affine=True, track_running_stats=True)
                (act): ReLU6(inplace=True)
              )
              (point_linear): Sequential(
                (conv): Conv2d(576, 192, kernel_size=(1, 1), stride=(1, 1), bias=False)
                (bn): BatchNorm2d(192, eps=0.001, momentum=0.1, affine=True, track_running_stats=True)
              )
            )
          )
        )
      )
      (18): MobileInvertedResidualBlock(
        (mobile_inverted_conv): MixedEdge(
          (candidate_ops): ModuleList(
            (0): MBInvertedConvLayer(
              (inverted_bottleneck): Sequential(
                (conv): Conv2d(192, 576, kernel_size=(1, 1), stride=(1, 1), bias=False)
                (bn): BatchNorm2d(576, eps=0.001, momentum=0.1, affine=True, track_running_stats=True)
                (act): ReLU6(inplace=True)
              )
              (depth_conv): Sequential(
                (conv): Conv2d(576, 576, kernel_size=(3, 3), stride=(1, 1), padding=(1, 1), groups=576, bias=False)
                (bn): BatchNorm2d(576, eps=0.001, momentum=0.1, affine=True, track_running_stats=True)
                (act): ReLU6(inplace=True)
              )
              (point_linear): Sequential(
                (conv): Conv2d(576, 192, kernel_size=(1, 1), stride=(1, 1), bias=False)
                (bn): BatchNorm2d(192, eps=0.001, momentum=0.1, affine=True, track_running_stats=True)
              )
            )
            (1): MBInvertedConvLayer(
              (inverted_bottleneck): Sequential(
                (conv): Conv2d(192, 1152, kernel_size=(1, 1), stride=(1, 1), bias=False)
                (bn): BatchNorm2d(1152, eps=0.001, momentum=0.1, affine=True, track_running_stats=True)
                (act): ReLU6(inplace=True)
              )
              (depth_conv): Sequential(
                (conv): Conv2d(1152, 1152, kernel_size=(3, 3), stride=(1, 1), padding=(1, 1), groups=1152, bias=False)
                (bn): BatchNorm2d(1152, eps=0.001, momentum=0.1, affine=True, track_running_stats=True)
                (act): ReLU6(inplace=True)
              )
              (point_linear): Sequential(
                (conv): Conv2d(1152, 192, kernel_size=(1, 1), stride=(1, 1), bias=False)
                (bn): BatchNorm2d(192, eps=0.001, momentum=0.1, affine=True, track_running_stats=True)
              )
            )
            (2): MBInvertedConvLayer(
              (inverted_bottleneck): Sequential(
                (conv): Conv2d(192, 576, kernel_size=(1, 1), stride=(1, 1), bias=False)
                (bn): BatchNorm2d(576, eps=0.001, momentum=0.1, affine=True, track_running_stats=True)
                (act): ReLU6(inplace=True)
              )
              (depth_conv): Sequential(
                (conv): Conv2d(576, 576, kernel_size=(5, 5), stride=(1, 1), padding=(2, 2), groups=576, bias=False)
                (bn): BatchNorm2d(576, eps=0.001, momentum=0.1, affine=True, track_running_stats=True)
                (act): ReLU6(inplace=True)
              )
              (point_linear): Sequential(
                (conv): Conv2d(576, 192, kernel_size=(1, 1), stride=(1, 1), bias=False)
                (bn): BatchNorm2d(192, eps=0.001, momentum=0.1, affine=True, track_running_stats=True)
              )
            )
            (3): MBInvertedConvLayer(
              (inverted_bottleneck): Sequential(
                (conv): Conv2d(192, 1152, kernel_size=(1, 1), stride=(1, 1), bias=False)
                (bn): BatchNorm2d(1152, eps=0.001, momentum=0.1, affine=True, track_running_stats=True)
                (act): ReLU6(inplace=True)
              )
              (depth_conv): Sequential(
                (conv): Conv2d(1152, 1152, kernel_size=(5, 5), stride=(1, 1), padding=(2, 2), groups=1152, bias=False)
                (bn): BatchNorm2d(1152, eps=0.001, momentum=0.1, affine=True, track_running_stats=True)
                (act): ReLU6(inplace=True)
              )
              (point_linear): Sequential(
                (conv): Conv2d(1152, 192, kernel_size=(1, 1), stride=(1, 1), bias=False)
                (bn): BatchNorm2d(192, eps=0.001, momentum=0.1, affine=True, track_running_stats=True)
              )
            )
            (4): MBInvertedConvLayer(
              (inverted_bottleneck): Sequential(
                (conv): Conv2d(192, 576, kernel_size=(1, 1), stride=(1, 1), bias=False)
                (bn): BatchNorm2d(576, eps=0.001, momentum=0.1, affine=True, track_running_stats=True)
                (act): ReLU6(inplace=True)
              )
              (depth_conv): Sequential(
                (conv): Conv2d(576, 576, kernel_size=(7, 7), stride=(1, 1), padding=(3, 3), groups=576, bias=False)
                (bn): BatchNorm2d(576, eps=0.001, momentum=0.1, affine=True, track_running_stats=True)
                (act): ReLU6(inplace=True)
              )
              (point_linear): Sequential(
                (conv): Conv2d(576, 192, kernel_size=(1, 1), stride=(1, 1), bias=False)
                (bn): BatchNorm2d(192, eps=0.001, momentum=0.1, affine=True, track_running_stats=True)
              )
            )
            (5): MBInvertedConvLayer(
              (inverted_bottleneck): Sequential(
                (conv): Conv2d(192, 1152, kernel_size=(1, 1), stride=(1, 1), bias=False)
                (bn): BatchNorm2d(1152, eps=0.001, momentum=0.1, affine=True, track_running_stats=True)
                (act): ReLU6(inplace=True)
              )
              (depth_conv): Sequential(
                (conv): Conv2d(1152, 1152, kernel_size=(7, 7), stride=(1, 1), padding=(3, 3), groups=1152, bias=False)
                (bn): BatchNorm2d(1152, eps=0.001, momentum=0.1, affine=True, track_running_stats=True)
                (act): ReLU6(inplace=True)
              )
              (point_linear): Sequential(
                (conv): Conv2d(1152, 192, kernel_size=(1, 1), stride=(1, 1), bias=False)
                (bn): BatchNorm2d(192, eps=0.001, momentum=0.1, affine=True, track_running_stats=True)
              )
            )
            (6): ZeroLayer()
          )
        )
        (shortcut): IdentityLayer()
      )
      (19): MobileInvertedResidualBlock(
        (mobile_inverted_conv): MixedEdge(
          (candidate_ops): ModuleList(
            (0): MBInvertedConvLayer(
              (inverted_bottleneck): Sequential(
                (conv): Conv2d(192, 576, kernel_size=(1, 1), stride=(1, 1), bias=False)
                (bn): BatchNorm2d(576, eps=0.001, momentum=0.1, affine=True, track_running_stats=True)
                (act): ReLU6(inplace=True)
              )
              (depth_conv): Sequential(
                (conv): Conv2d(576, 576, kernel_size=(3, 3), stride=(1, 1), padding=(1, 1), groups=576, bias=False)
                (bn): BatchNorm2d(576, eps=0.001, momentum=0.1, affine=True, track_running_stats=True)
                (act): ReLU6(inplace=True)
              )
              (point_linear): Sequential(
                (conv): Conv2d(576, 192, kernel_size=(1, 1), stride=(1, 1), bias=False)
                (bn): BatchNorm2d(192, eps=0.001, momentum=0.1, affine=True, track_running_stats=True)
              )
            )
            (1): MBInvertedConvLayer(
              (inverted_bottleneck): Sequential(
                (conv): Conv2d(192, 1152, kernel_size=(1, 1), stride=(1, 1), bias=False)
                (bn): BatchNorm2d(1152, eps=0.001, momentum=0.1, affine=True, track_running_stats=True)
                (act): ReLU6(inplace=True)
              )
              (depth_conv): Sequential(
                (conv): Conv2d(1152, 1152, kernel_size=(3, 3), stride=(1, 1), padding=(1, 1), groups=1152, bias=False)
                (bn): BatchNorm2d(1152, eps=0.001, momentum=0.1, affine=True, track_running_stats=True)
                (act): ReLU6(inplace=True)
              )
              (point_linear): Sequential(
                (conv): Conv2d(1152, 192, kernel_size=(1, 1), stride=(1, 1), bias=False)
                (bn): BatchNorm2d(192, eps=0.001, momentum=0.1, affine=True, track_running_stats=True)
              )
            )
            (2): MBInvertedConvLayer(
              (inverted_bottleneck): Sequential(
                (conv): Conv2d(192, 576, kernel_size=(1, 1), stride=(1, 1), bias=False)
                (bn): BatchNorm2d(576, eps=0.001, momentum=0.1, affine=True, track_running_stats=True)
                (act): ReLU6(inplace=True)
              )
              (depth_conv): Sequential(
                (conv): Conv2d(576, 576, kernel_size=(5, 5), stride=(1, 1), padding=(2, 2), groups=576, bias=False)
                (bn): BatchNorm2d(576, eps=0.001, momentum=0.1, affine=True, track_running_stats=True)
                (act): ReLU6(inplace=True)
              )
              (point_linear): Sequential(
                (conv): Conv2d(576, 192, kernel_size=(1, 1), stride=(1, 1), bias=False)
                (bn): BatchNorm2d(192, eps=0.001, momentum=0.1, affine=True, track_running_stats=True)
              )
            )
            (3): MBInvertedConvLayer(
              (inverted_bottleneck): Sequential(
                (conv): Conv2d(192, 1152, kernel_size=(1, 1), stride=(1, 1), bias=False)
                (bn): BatchNorm2d(1152, eps=0.001, momentum=0.1, affine=True, track_running_stats=True)
                (act): ReLU6(inplace=True)
              )
              (depth_conv): Sequential(
                (conv): Conv2d(1152, 1152, kernel_size=(5, 5), stride=(1, 1), padding=(2, 2), groups=1152, bias=False)
                (bn): BatchNorm2d(1152, eps=0.001, momentum=0.1, affine=True, track_running_stats=True)
                (act): ReLU6(inplace=True)
              )
              (point_linear): Sequential(
                (conv): Conv2d(1152, 192, kernel_size=(1, 1), stride=(1, 1), bias=False)
                (bn): BatchNorm2d(192, eps=0.001, momentum=0.1, affine=True, track_running_stats=True)
              )
            )
            (4): MBInvertedConvLayer(
              (inverted_bottleneck): Sequential(
                (conv): Conv2d(192, 576, kernel_size=(1, 1), stride=(1, 1), bias=False)
                (bn): BatchNorm2d(576, eps=0.001, momentum=0.1, affine=True, track_running_stats=True)
                (act): ReLU6(inplace=True)
              )
              (depth_conv): Sequential(
                (conv): Conv2d(576, 576, kernel_size=(7, 7), stride=(1, 1), padding=(3, 3), groups=576, bias=False)
                (bn): BatchNorm2d(576, eps=0.001, momentum=0.1, affine=True, track_running_stats=True)
                (act): ReLU6(inplace=True)
              )
              (point_linear): Sequential(
                (conv): Conv2d(576, 192, kernel_size=(1, 1), stride=(1, 1), bias=False)
                (bn): BatchNorm2d(192, eps=0.001, momentum=0.1, affine=True, track_running_stats=True)
              )
            )
            (5): MBInvertedConvLayer(
              (inverted_bottleneck): Sequential(
                (conv): Conv2d(192, 1152, kernel_size=(1, 1), stride=(1, 1), bias=False)
                (bn): BatchNorm2d(1152, eps=0.001, momentum=0.1, affine=True, track_running_stats=True)
                (act): ReLU6(inplace=True)
              )
              (depth_conv): Sequential(
                (conv): Conv2d(1152, 1152, kernel_size=(7, 7), stride=(1, 1), padding=(3, 3), groups=1152, bias=False)
                (bn): BatchNorm2d(1152, eps=0.001, momentum=0.1, affine=True, track_running_stats=True)
                (act): ReLU6(inplace=True)
              )
              (point_linear): Sequential(
                (conv): Conv2d(1152, 192, kernel_size=(1, 1), stride=(1, 1), bias=False)
                (bn): BatchNorm2d(192, eps=0.001, momentum=0.1, affine=True, track_running_stats=True)
              )
            )
            (6): ZeroLayer()
          )
        )
        (shortcut): IdentityLayer()
      )
      (20): MobileInvertedResidualBlock(
        (mobile_inverted_conv): MixedEdge(
          (candidate_ops): ModuleList(
            (0): MBInvertedConvLayer(
              (inverted_bottleneck): Sequential(
                (conv): Conv2d(192, 576, kernel_size=(1, 1), stride=(1, 1), bias=False)
                (bn): BatchNorm2d(576, eps=0.001, momentum=0.1, affine=True, track_running_stats=True)
                (act): ReLU6(inplace=True)
              )
              (depth_conv): Sequential(
                (conv): Conv2d(576, 576, kernel_size=(3, 3), stride=(1, 1), padding=(1, 1), groups=576, bias=False)
                (bn): BatchNorm2d(576, eps=0.001, momentum=0.1, affine=True, track_running_stats=True)
                (act): ReLU6(inplace=True)
              )
              (point_linear): Sequential(
                (conv): Conv2d(576, 192, kernel_size=(1, 1), stride=(1, 1), bias=False)
                (bn): BatchNorm2d(192, eps=0.001, momentum=0.1, affine=True, track_running_stats=True)
              )
            )
            (1): MBInvertedConvLayer(
              (inverted_bottleneck): Sequential(
                (conv): Conv2d(192, 1152, kernel_size=(1, 1), stride=(1, 1), bias=False)
                (bn): BatchNorm2d(1152, eps=0.001, momentum=0.1, affine=True, track_running_stats=True)
                (act): ReLU6(inplace=True)
              )
              (depth_conv): Sequential(
                (conv): Conv2d(1152, 1152, kernel_size=(3, 3), stride=(1, 1), padding=(1, 1), groups=1152, bias=False)
                (bn): BatchNorm2d(1152, eps=0.001, momentum=0.1, affine=True, track_running_stats=True)
                (act): ReLU6(inplace=True)
              )
              (point_linear): Sequential(
                (conv): Conv2d(1152, 192, kernel_size=(1, 1), stride=(1, 1), bias=False)
                (bn): BatchNorm2d(192, eps=0.001, momentum=0.1, affine=True, track_running_stats=True)
              )
            )
            (2): MBInvertedConvLayer(
              (inverted_bottleneck): Sequential(
                (conv): Conv2d(192, 576, kernel_size=(1, 1), stride=(1, 1), bias=False)
                (bn): BatchNorm2d(576, eps=0.001, momentum=0.1, affine=True, track_running_stats=True)
                (act): ReLU6(inplace=True)
              )
              (depth_conv): Sequential(
                (conv): Conv2d(576, 576, kernel_size=(5, 5), stride=(1, 1), padding=(2, 2), groups=576, bias=False)
                (bn): BatchNorm2d(576, eps=0.001, momentum=0.1, affine=True, track_running_stats=True)
                (act): ReLU6(inplace=True)
              )
              (point_linear): Sequential(
                (conv): Conv2d(576, 192, kernel_size=(1, 1), stride=(1, 1), bias=False)
                (bn): BatchNorm2d(192, eps=0.001, momentum=0.1, affine=True, track_running_stats=True)
              )
            )
            (3): MBInvertedConvLayer(
              (inverted_bottleneck): Sequential(
                (conv): Conv2d(192, 1152, kernel_size=(1, 1), stride=(1, 1), bias=False)
                (bn): BatchNorm2d(1152, eps=0.001, momentum=0.1, affine=True, track_running_stats=True)
                (act): ReLU6(inplace=True)
              )
              (depth_conv): Sequential(
                (conv): Conv2d(1152, 1152, kernel_size=(5, 5), stride=(1, 1), padding=(2, 2), groups=1152, bias=False)
                (bn): BatchNorm2d(1152, eps=0.001, momentum=0.1, affine=True, track_running_stats=True)
                (act): ReLU6(inplace=True)
              )
              (point_linear): Sequential(
                (conv): Conv2d(1152, 192, kernel_size=(1, 1), stride=(1, 1), bias=False)
                (bn): BatchNorm2d(192, eps=0.001, momentum=0.1, affine=True, track_running_stats=True)
              )
            )
            (4): MBInvertedConvLayer(
              (inverted_bottleneck): Sequential(
                (conv): Conv2d(192, 576, kernel_size=(1, 1), stride=(1, 1), bias=False)
                (bn): BatchNorm2d(576, eps=0.001, momentum=0.1, affine=True, track_running_stats=True)
                (act): ReLU6(inplace=True)
              )
              (depth_conv): Sequential(
                (conv): Conv2d(576, 576, kernel_size=(7, 7), stride=(1, 1), padding=(3, 3), groups=576, bias=False)
                (bn): BatchNorm2d(576, eps=0.001, momentum=0.1, affine=True, track_running_stats=True)
                (act): ReLU6(inplace=True)
              )
              (point_linear): Sequential(
                (conv): Conv2d(576, 192, kernel_size=(1, 1), stride=(1, 1), bias=False)
                (bn): BatchNorm2d(192, eps=0.001, momentum=0.1, affine=True, track_running_stats=True)
              )
            )
            (5): MBInvertedConvLayer(
              (inverted_bottleneck): Sequential(
                (conv): Conv2d(192, 1152, kernel_size=(1, 1), stride=(1, 1), bias=False)
                (bn): BatchNorm2d(1152, eps=0.001, momentum=0.1, affine=True, track_running_stats=True)
                (act): ReLU6(inplace=True)
              )
              (depth_conv): Sequential(
                (conv): Conv2d(1152, 1152, kernel_size=(7, 7), stride=(1, 1), padding=(3, 3), groups=1152, bias=False)
                (bn): BatchNorm2d(1152, eps=0.001, momentum=0.1, affine=True, track_running_stats=True)
                (act): ReLU6(inplace=True)
              )
              (point_linear): Sequential(
                (conv): Conv2d(1152, 192, kernel_size=(1, 1), stride=(1, 1), bias=False)
                (bn): BatchNorm2d(192, eps=0.001, momentum=0.1, affine=True, track_running_stats=True)
              )
            )
            (6): ZeroLayer()
          )
        )
        (shortcut): IdentityLayer()
      )
      (21): MobileInvertedResidualBlock(
        (mobile_inverted_conv): MixedEdge(
          (candidate_ops): ModuleList(
            (0): MBInvertedConvLayer(
              (inverted_bottleneck): Sequential(
                (conv): Conv2d(192, 576, kernel_size=(1, 1), stride=(1, 1), bias=False)
                (bn): BatchNorm2d(576, eps=0.001, momentum=0.1, affine=True, track_running_stats=True)
                (act): ReLU6(inplace=True)
              )
              (depth_conv): Sequential(
                (conv): Conv2d(576, 576, kernel_size=(3, 3), stride=(1, 1), padding=(1, 1), groups=576, bias=False)
                (bn): BatchNorm2d(576, eps=0.001, momentum=0.1, affine=True, track_running_stats=True)
                (act): ReLU6(inplace=True)
              )
              (point_linear): Sequential(
                (conv): Conv2d(576, 320, kernel_size=(1, 1), stride=(1, 1), bias=False)
                (bn): BatchNorm2d(320, eps=0.001, momentum=0.1, affine=True, track_running_stats=True)
              )
            )
            (1): MBInvertedConvLayer(
              (inverted_bottleneck): Sequential(
                (conv): Conv2d(192, 1152, kernel_size=(1, 1), stride=(1, 1), bias=False)
                (bn): BatchNorm2d(1152, eps=0.001, momentum=0.1, affine=True, track_running_stats=True)
                (act): ReLU6(inplace=True)
              )
              (depth_conv): Sequential(
                (conv): Conv2d(1152, 1152, kernel_size=(3, 3), stride=(1, 1), padding=(1, 1), groups=1152, bias=False)
                (bn): BatchNorm2d(1152, eps=0.001, momentum=0.1, affine=True, track_running_stats=True)
                (act): ReLU6(inplace=True)
              )
              (point_linear): Sequential(
                (conv): Conv2d(1152, 320, kernel_size=(1, 1), stride=(1, 1), bias=False)
                (bn): BatchNorm2d(320, eps=0.001, momentum=0.1, affine=True, track_running_stats=True)
              )
            )
            (2): MBInvertedConvLayer(
              (inverted_bottleneck): Sequential(
                (conv): Conv2d(192, 576, kernel_size=(1, 1), stride=(1, 1), bias=False)
                (bn): BatchNorm2d(576, eps=0.001, momentum=0.1, affine=True, track_running_stats=True)
                (act): ReLU6(inplace=True)
              )
              (depth_conv): Sequential(
                (conv): Conv2d(576, 576, kernel_size=(5, 5), stride=(1, 1), padding=(2, 2), groups=576, bias=False)
                (bn): BatchNorm2d(576, eps=0.001, momentum=0.1, affine=True, track_running_stats=True)
                (act): ReLU6(inplace=True)
              )
              (point_linear): Sequential(
                (conv): Conv2d(576, 320, kernel_size=(1, 1), stride=(1, 1), bias=False)
                (bn): BatchNorm2d(320, eps=0.001, momentum=0.1, affine=True, track_running_stats=True)
              )
            )
            (3): MBInvertedConvLayer(
              (inverted_bottleneck): Sequential(
                (conv): Conv2d(192, 1152, kernel_size=(1, 1), stride=(1, 1), bias=False)
                (bn): BatchNorm2d(1152, eps=0.001, momentum=0.1, affine=True, track_running_stats=True)
                (act): ReLU6(inplace=True)
              )
              (depth_conv): Sequential(
                (conv): Conv2d(1152, 1152, kernel_size=(5, 5), stride=(1, 1), padding=(2, 2), groups=1152, bias=False)
                (bn): BatchNorm2d(1152, eps=0.001, momentum=0.1, affine=True, track_running_stats=True)
                (act): ReLU6(inplace=True)
              )
              (point_linear): Sequential(
                (conv): Conv2d(1152, 320, kernel_size=(1, 1), stride=(1, 1), bias=False)
                (bn): BatchNorm2d(320, eps=0.001, momentum=0.1, affine=True, track_running_stats=True)
              )
            )
            (4): MBInvertedConvLayer(
              (inverted_bottleneck): Sequential(
                (conv): Conv2d(192, 576, kernel_size=(1, 1), stride=(1, 1), bias=False)
                (bn): BatchNorm2d(576, eps=0.001, momentum=0.1, affine=True, track_running_stats=True)
                (act): ReLU6(inplace=True)
              )
              (depth_conv): Sequential(
                (conv): Conv2d(576, 576, kernel_size=(7, 7), stride=(1, 1), padding=(3, 3), groups=576, bias=False)
                (bn): BatchNorm2d(576, eps=0.001, momentum=0.1, affine=True, track_running_stats=True)
                (act): ReLU6(inplace=True)
              )
              (point_linear): Sequential(
                (conv): Conv2d(576, 320, kernel_size=(1, 1), stride=(1, 1), bias=False)
                (bn): BatchNorm2d(320, eps=0.001, momentum=0.1, affine=True, track_running_stats=True)
              )
            )
            (5): MBInvertedConvLayer(
              (inverted_bottleneck): Sequential(
                (conv): Conv2d(192, 1152, kernel_size=(1, 1), stride=(1, 1), bias=False)
                (bn): BatchNorm2d(1152, eps=0.001, momentum=0.1, affine=True, track_running_stats=True)
                (act): ReLU6(inplace=True)
              )
              (depth_conv): Sequential(
                (conv): Conv2d(1152, 1152, kernel_size=(7, 7), stride=(1, 1), padding=(3, 3), groups=1152, bias=False)
                (bn): BatchNorm2d(1152, eps=0.001, momentum=0.1, affine=True, track_running_stats=True)
                (act): ReLU6(inplace=True)
              )
              (point_linear): Sequential(
                (conv): Conv2d(1152, 320, kernel_size=(1, 1), stride=(1, 1), bias=False)
                (bn): BatchNorm2d(320, eps=0.001, momentum=0.1, affine=True, track_running_stats=True)
              )
            )
          )
        )
      )
    )
    (feature_mix_layer): ConvLayer(
      (conv): Conv2d(320, 1280, kernel_size=(1, 1), stride=(1, 1), bias=False)
      (bn): BatchNorm2d(1280, eps=0.001, momentum=0.1, affine=True, track_running_stats=True)
      (act): ReLU6(inplace=True)
    )
    (global_avg_pooling): AdaptiveAvgPool2d(output_size=1)
    (classifier): LinearLayer(
      (linear): Linear(in_features=1280, out_features=1000, bias=True)
    )
  )
)
Total training params: 16.03M
Total FLOPs: 257.4M

 ------------------------------ Warmup epoch: 1 ------------------------------ 

Warmup Train [1][0/773]	Time 13.798 (13.798)	Data 3.122 (3.122)	Loss 6.9013 (6.9013)	Top-1 acc 1.562 (1.562)	Top-5 acc 1.562 (1.562)	lr 0.05000
Warmup Train [1][10/773]	Time 0.884 (2.303)	Data 0.001 (0.285)	Loss 6.0734 (6.5209)	Top-1 acc 0.781 (0.639)	Top-5 acc 2.344 (1.705)	lr 0.05000
…
